.taste_cache/emb/b035cd7440b5c6709c95480a56969178.npy (npy, 2176 bytes, 1 tensors)

array f4 [512]
00000000: cee4 6ebc d900 3fbb ef9e 62bd 4388 90bb
00000010: c455 24bd 87f6 d53c 6618 b03d b522 1c3b
00000020: 787c 293c 2468 393d 4d25 1e3d 247a 4fbc
00000030: 5276 ab3c 665c 1b3d c20f c73c 602c d2bc
00000040: 38d3 0c3d ceab b4bb 749b ac3b d176 26bd
00000050: 84e2 06bd 31da 0b3d 10fd 363d d103 8e3b
00000060: 3039 aabc 6d6c 193d 2926 483d eec2 92bd
00000070: 0840 4f3c 17d2 803c 7f37 213d efb3 80bb
00000080: 57dd d53b 53e0 c73c 4006 95bb 2c78 2b3d
00000090: 7ae1 0e3d e04b 7abc dcad b93c 839e bdbd
000000a0: 8c3e a03b 2b64 29bc 7d21 60bc 52d1 debc
000000b0: 7e76 0f3d de80 f7bc 8ce4 a33c 4262 fb3c
000000c0: 68af 323b 2f92 43bc 1d33 053d ea44 b1bc
000000d0: 54ea 333d 12ca 843c d346 18bc 2689 a43c
000000e0: cbf8 953c 57bc 2bbc 065a 31bd 6b7e 6a3d
000000f0: 99af e2bc 26a9 d7bc a48d b43c 6161 0cbd
00000100: def3 f7bb 832c 333c f2ce 17bd cb95 bc3b
00000110: c2dc e8bc 3dda de37 3f3d d6bd 7a38 b5bb
00000120: a507 ccbc 9f42 943c 2509 ccbb fa15 acbd
00000130: a659 f93a 7ffb a5bc 6451 3e3d 8c22 733c
00000140: 4f84 8bbc b681 463b 837c cebc abf4 dd3b
00000150: 4830 81b9 561c 40bc ddd0 463d e1e5 01bd
00000160: 4c50 dabc c6ed dd3c 5409 1bbc 7d08 92bc
00000170: 81c4 7ebc bcf3 88bc 6ca4 00bd 3aa0 8b3c
00000180: 8df6 533d 620e e2ba 828b 473a ce2c 8b3d
00000190: 2071 633b 737a 03bb 7cee b8bb 4d0a a53b
000001a0: b16e b8bb 6f50 91bb 76c6 81bc 1f2f 3fbd
000001b0: 17c2 d4bc dce6 2dbc 599f 163c 8c42 c6bc
000001c0: 7722 603d f16d c23c 5ed8 a5bc 1a7f a33a
000001d0: 0e6c 01bc 7596 10bd 212c e9bc 52d4 123c
000001e0: e196 c8bc be72 123d dc06 bb3c 0ea2 c9bc
000001f0: f588 003d b9b5 2abd 6eea d7bc afef 6fbc
00000200: 446b 4fbd 5336 88bc 06d4 9a3d ad5d 34bd
00000210: e162 c93c 8760 503c 6fca fc3c 2a36 54bc
00000220: a02c 4f3d 4791 643d 147b f5bc 354f 9f3b
00000230: 2579 913c 13ce 60bc e290 863c 7938 ddbc
00000240: bc3e dbbc dab6 e13c 02d9 a8bd 6235 b5bd
00000250: 9bf2 473c 1d61 3d3d b902 d2ba 35cd 59bd
00000260: b2bf 953e a919 463c 3c2d 533c b140 023d
00000270: 9ffd 423d d243 833c ceb7 13bc f8bc 80bc
00000280: 3db1 d03c c645 42bb 98b2 4bbd 3085 c73c
00000290: 627f 13bc fa72 ee3c 6be6 bcbd 7717 d93c
000002a0: 6bc9 a9ba 4bf8 633c 6024 b4b9 5bcf ff3b
000002b0: d2c1 a33b ada3 b03d 7051 593b 152f 813d
000002c0: 33fe 56bd 2fc8 073c 7e29 ef3d f526 1c3c
000002d0: 4e99 07bd 5bee 5a3c 96cc acbc dbed 44bb
000002e0: 87ab 46bd fdf3 913c af2a f2bb dfad a4bc
000002f0: 8ac8 ed3c bb95 75bc cf38 3a3d 230b 49bd
00000300: 7142 2fbd a76a 67bc 7cbb 863a 44b2 083d
00000310: 9f65 a13c 56b2 0c3d 89dc b0bc 3d2d 06bc
00000320: 79d5 07bc ffc4 303c 9032 983c 38c6 b93c
00000330: 2bf8 c73c 275e 5bbc c73f 0dbd 2544 0dbd
00000340: 54b3 083d f3c3 15bd 5456 a7bb f1ef b43c
00000350: c4d3 e13b d156 4ebd a334 e5bc e993 0f3d
00000360: d99f adbc 1752 84bc 9473 ff3c 3c51 283d
00000370: 4ae8 3c3d eb94 2dbd d043 443b e160 303d
00000380: eb94 503d ec8e 81bc 7b26 a8bc f4de 46bd
00000390: 77bc 6f3c 32c5 0a3d 26a0 0ebc d010 303c
000003a0: 9ac7 283b 58f5 ed3b d211 613d 759f 0abd
000003b0: 8c58 063c e225 82bd 88de 5fbc 4318 2fbd
000003c0: 9e85 b03d cc4f 2bbe fd37 023c 84d1 093c
000003d0: d09c 9e3c c846 00bc 3fc8 68bc 010a e33c
000003e0: 1672 84bd 2df4 89bc f66a b0bd 4219 103d
000003f0: 657a 30bd 8251 d6bd 57a0 3fbc 4056 88bc
-0.0145809185 -0.0029144792 -0.055327352 -0.004410775 -0.040120855 0.02611853 0.08598404 0.0023824398
0.010344617 0.045265332 0.03860979 -0.012663398 0.020930443 0.037929915 0.024299506 -0.025655925
0.03438112 -0.005513645 0.005267555 -0.040640656 -0.032930866 0.03414363 0.044674933 0.004333951
-0.020779222 0.03745692 0.048864517 -0.07166086 0.012649544 0.015725179 0.039359566 -0.0039276998
0.00652663 0.024398958 -0.004547864 0.04186265 0.034883 -0.015276879 0.02266591 -0.09258749
0.0048902687 -0.010338823 -0.013679859 -0.027199421 0.035025112 -0.030212816 0.02000644 0.030686501
0.0027265195 -0.011936708 0.03251945 -0.021639306 0.043924645 0.016209636 -0.00929423 0.020084929
0.01830711 -0.010481915 -0.043298744 0.057249468 -0.027671622 -0.026325773 0.022040196 -0.034272555
-0.007566913 0.010935905 -0.037062593 0.0057551614 -0.028425578 2.6566087e-05 -0.104609005 -0.005530414
-0.024905989 0.018098174 -0.006226676 -0.08402629 0.001902391 -0.020261524 0.04646434 0.01483978
-0.017030863 0.0030289716 -0.025205856 0.0067735515 -0.0002464077 -0.011725506 0.04853903 -0.03171337
-0.026649617 0.027090918 -0.009462673 -0.017826313 -0.01554978 -0.016717784 -0.031406805 0.017044175
0.0517488 -0.0017246718 0.0007612036 0.06795655 0.003470488 -0.0020062 -0.005643664 0.0050366283
-0.00562843 -0.0044346373 -0.015841704 -0.046675798 -0.025971455 -0.010614123 0.009193265 -0.024201654
0.05472037 0.023734065 -0.020244773 0.0012473792 -0.007899297 -0.035299737 -0.028463425 0.008961754
-0.024486007 0.035753958 0.02283042 -0.024613407 0.031380612 -0.04167721 -0.026356902 -0.014644547
-0.050639406 -0.016627466 0.075599715 -0.04403465 0.024583282 0.012718326 0.030858247 -0.012952367
0.050579667 0.05580261 -0.029965915 0.004861737 0.017757962 -0.013721007 0.016426507 -0.027004467
-0.026763313 0.02755301 -0.08244516 -0.088480726 0.012203838 0.046235193 -0.001602254 -0.053174216
0.29247814 0.012091079 0.012889203 0.031799976 0.047605153 0.01602355 -0.00901599 -0.015715107
0.025475139 -0.002964364 -0.049730867 0.024355501 -0.009002538 0.02910756 -0.09223636 0.026500447
-0.0012953704 0.013914178 -0.00034359377 0.007806701 0.0049974704 0.08624969 0.0033160113 0.06307808
-0.052488517 0.008287474 0.11677836 0.009530772 -0.033105187 0.013362492 -0.021093648 -0.0030049
-0.048503425 0.017816538 -0.007390342 -0.02010244 0.029026289 -0.014989312 0.045464333 -0.049082886
-0.042787973 -0.014124549 0.0010279263 0.033373132 0.019701777 0.034349762 -0.021589534 -0.008189497
-0.008290642 0.010789155 0.018578798 0.022677526 0.024410328 -0.013389147 -0.03448465 -0.034488816
0.033374146 -0.036563825 -0.0051067267 0.02208707 0.0068916995 -0.050375763 -0.0279792 0.035053167
-0.021194385 -0.016152425 0.031183042 0.041093096 0.046119966 -0.042378347 0.0029947646 0.04306114
0.05092327 -0.01581522 -0.020526161 -0.04855247 0.014632336 0.033879466 -0.008705175 0.010746196
0.0025753737 0.0072619133 0.054948635 -0.033843476 0.008199822 -0.06354882 -0.013663895 -0.042747747
0.086192355 -0.16729659 0.007947919 0.008411769 0.019361883 -0.007829376 -0.014207899 0.027714731
-0.06467073 -0.016840065 -0.08614151 0.035180338 -0.043085475 -0.10464765 -0.011695943 -0.01664269
