.taste_cache/emb/b16081db9e52d8dfd1650d0ad6b03d0d.npy (npy, 2176 bytes, 1 tensors)

array f4 [512]
-0.010109464 -0.013676741 -0.06701708 -0.0011616601 -0.037590038 0.04114123 0.044218726 -0.0043469113
0.033733606 0.0501486 0.030527443 -0.0381284 0.030432325 0.039855387 0.028837288 0.0121124
0.030885763 0.00324282 0.014101724 -0.046788022 -0.047244046 0.043927483 0.043089654 -0.014947077
-0.007852536 0.02592725 0.04606831 -0.042644463 -0.00558109 0.012135156 0.01865888 0.0448712
0.010862245 0.028921638 -0.002592722 0.046290267 0.034429297 0.025404498 0.012255737 -0.07297718
-0.012909754 -0.02122523 -0.009394983 -0.036132123 0.048894923 -0.015127501 0.030673562 0.046845134
0.011609333 -0.011364102 0.03194226 0.0007976861 0.038233787 0.0276673 0.004718565 -0.0060723163
0.030278383 -0.0003307639 -0.05757735 0.062264312 -0.012758327 -0.010014607 0.007858432 -0.028549511
-0.01685365 0.025813919 -0.019081632 -0.024165515 -0.034266435 -0.014339693 -0.11383172 -0.026563872
-0.027116409 0.016203333 -0.011380461 -0.08524829 0.026580598 -0.029637722 0.041055333 0.03848666
-0.009105023 0.042498328 0.0028409783 0.022572482 -0.013547179 -0.0037218905 0.033521824 -0.03216034
-0.013196959 0.0011152099 0.02959214 -0.024846045 -0.022189535 -0.042077716 -0.022016583 0.030534694
0.06811466 0.01600543 -0.034169305 0.08042129 0.013212492 -0.0060492703 -0.028734425 -0.004020787
0.0020672432 0.021126943 -0.03364842 -0.06335125 -0.013671773 0.016315158 0.0035445977 -0.017185213
0.054539073 0.030735644 -0.015920386 0.02433993 -0.019306252 -0.04810773 -0.00443983 0.016370445
-0.023997966 0.028199883 0.03275668 -0.031745892 0.02391702 -0.03162859 -0.036053695 2.7800328e-05
-0.04412536 0.0037347137 0.073910244 -0.046606507 0.037541993 -0.010996215 0.025658643 -0.04785385
0.023507278 0.03949317 -0.003859165 0.031745866 0.015698707 -0.024392014 0.024665415 -0.040167063
-0.022899767 -0.0046500186 -0.08616551 -0.09073008 0.019895202 0.05655654 -0.019056076 -0.014655419
0.27970558 0.016372891 0.0285581 0.045935933 0.057121273 0.024210168 -0.019639602 -0.01725007
0.024865514 -0.013793919 -0.040046606 0.012038488 0.010872115 -0.031118196 -0.05649736 0.02162958
-0.006236168 0.01706008 -0.04468368 0.0013832152 0.024611235 0.06804798 -0.006663395 0.04343701
-0.06378376 0.010009061 0.14844127 -0.012417556 -0.046299778 -0.0026159382 0.0051544416 0.008863887
-0.031992912 -0.005305996 0.013915218 -0.028136274 0.04311699 -0.015265559 0.041302145 -0.0679258
-0.052520018 -0.019768137 -0.011566791 0.04190334 0.014653654 0.03558671 0.0012372853 -0.020011801
0.0022067048 -0.0017183531 0.0346886 0.03213235 0.010491758 0.02024022 -0.03993211 -0.051945742
0.021144677 -0.031071566 0.0172146 0.0021976286 -0.0045782435 -0.03204056 -0.021143824 0.024039498
-0.010296933 -0.029186947 0.033591703 0.015043712 0.05899412 -0.056086704 -0.008313904 0.0018512303
0.020818777 -0.011104836 -0.02514051 -0.05433554 0.021305827 -0.0031585025 0.0077876393 0.0017800351
-0.00012739467 0.0058436194 0.055362772 -0.01239813 0.015280209 -0.05085896 -0.0028157602 -0.0479334
0.04796266 -0.17929515 0.0007231657 0.007975255 0.0063518668 0.016518509 -0.047216956 0.010297344
-0.067649506 -0.01490307 -0.07108285 0.015393048 -0.00077052217 -0.11385662 0.0055281892 0.011734139
00000000: 2aa2 25bc 6914 60bc 4040 89bd d842 98ba
00000010: 03f8 19bd b583 283d b21e 353d 8970 8ebb
00000020: 402c 0a3d 9e68 4d3d b014 fa3c 862c 1cbd
00000030: 364d f93c 673f 233d 2d3c ec3c 1673 463c
00000040: 2404 fd3c 7e85 543b eb0a 673c cca4 3fbd
00000050: f982 41bd 4eed 333d c77e 303d 96e4 74bc
00000060: eca7 00bc 6265 d43c 20b2 3c3d f6ab 2ebd
00000070: 94e1 b6bb 89d2 463c 82da 983c ddca 373d
00000080: 8ff7 313c 12ed ec3c a8ea 29bb dd9a 3d3d
00000090: bc05 0d3d 181d d03c 49cc 483c 0f75 95bd
000000a0: 6f83 53bc 89e0 adbc 6aed 19bc 47ff 13bd
000000b0: 0b46 483d 57d9 77bc 1f47 fb3c afe0 3f3d
000000c0: 1235 3e3c 8030 3abc e3d5 023d cf1b 513a
000000d0: 089b 1c3d 89a6 e23c 319e 9a3b 48fa c6bb
000000e0: 5f0a f83c 616a adb9 3ad6 6bbd dd08 7f3d
000000f0: 4d08 51bc 4e14 24bc a7c0 003c aae0 e9bc
00000100: aa10 8abc b677 d33c 1551 9cbc c2f6 c5bc
00000110: f65a 0cbd 08f1 6abc 9b20 e9bd 7a9c d9bc
00000120: 3b23 debc dabc 843c 1d75 3abc a896 aebd
00000130: 8ebf d93c cfca f2bc a329 283d 30a4 1d3d
00000140: 3c2d 15bc ba12 2e3d b52f 3a3b ede9 b83c
00000150: fdf4 5dbc f6ea 73bb 2e4e 093d 90ba 03bd
00000160: 0f38 58bc 3c2c 923a 376b f23c ef89 cbbc
00000170: d4c6 b5bc af59 2cbd 1f5c b4bc e523 fa3c
00000180: b37f 8b3d d21d 833c 1df5 0bbd ebb3 a43d
00000190: 3579 583c f538 c6bb 7564 ebbc cec0 83bb
000001a0: 967a 073b 6912 ad3c edd2 09bd 4dbe 81bd
000001b0: 92ff 5fbc 5ea7 853c 7b4c 683b 01c8 8cbc
000001c0: 5d64 5f3d 51c9 fb3c 786b 82bc 8864 c73c
000001d0: 2528 9ebc 9c0c 45bd fe7b 91bb 501b 863c
000001e0: 6297 c4bc 7103 e73c de2b 063d fb07 02bd
000001f0: a0ed c33c fb8c 01bd 0aad 13bd c034 e937
00000200: cbbc 34bd 19c2 743b 415e 973d 77e6 3ebd
00000210: a2c5 193d 7829 34bc 1332 d23c 6602 44bd
00000220: 5692 c03c 97c3 213d 0bea 7cbb f407 023d
00000230: 939a 803c c3d1 c7bc 200f ca3c 3886 24bd
00000240: 4b98 bbbc 2f5f 98bb 8b77 b0bd b1d0 b9bd
00000250: 43fb a23c d5a7 673d 7d1b 9cbc 481d 70bc
00000260: 9235 8f3e 7120 863c adf2 e93c 5127 3c3d
00000270: fff7 693d 6754 c63c 3be3 a0bc 0550 8dbc
00000280: c3b2 cb3c e4ff 61bc e907 24bd 143d 453c
00000290: f520 323c 96eb febc c769 67bd 8430 b13c
000002a0: c558 ccbb 95c1 8b3c 3c06 37bd 004d b53a
000002b0: 809d c93c bd5c 8b3d 9c58 dabb 02eb 313d
000002c0: 0fa1 82bd 0bfd 233c fd00 183e 0173 4bbc
000002d0: d6a4 3dbd 2970 2bbb 97e6 a83b d639 113c
000002e0: 000b 03bd ecdd adbb a8fc 633c 0b7e e6bc
000002f0: 719b 303d 651c 7abc 702c 293d af1c 8bbd
00000300: 3b1f 57bd caf0 a1bc a382 3dbc d6a2 2b3d
00000310: e115 703c 5fc3 113d 682c a23a caef a3bc
00000320: 5d9e 103b 5d3a e1ba a215 0e3d 369d 033d
00000330: 9fe5 2b3c d1ce a53c da8f 23bd 0fc5 54bd
00000340: 9a37 ad3c cc89 febc a205 8d3c 1706 103b
00000350: 1705 96bb f63c 03bd d035 adbc 7bee c43c
00000360: 78b4 28bc 7719 efbc 7497 093d e779 763c
00000370: d2a3 713d 2cbb 65bd 0a37 08bc fba4 f23a
00000380: 248c aa3c 0ff1 35bc 79f3 cdbc f18e 5ebd
00000390: 8f89 ae3c e1fe 4ebb 742f ff3b 1150 e93a
000003a0: 3f95 05b9 d57b bf3b 13c4 623d 8721 4bbc
000003b0: d759 7a3c 7c51 50bd 9e88 38bb d055 44bd
000003c0: 7f74 443d 2699 37be d492 3d3a a5aa 023c
000003d0: 5223 d03b d351 873c 9166 41bd 31b6 283c
000003e0: d38b 8abd 022c 74bc e393 91bd 1f33 7c3c
000003f0: defc 49ba a92d e9bd d025 b53b 8c40 403c
