.taste_cache/emb/b1aacff4b8204f53cf37cfd1397003f3.npy (npy, 2176 bytes, 1 tensors)

array f4 [512]
-0.016113583 -0.064122304 -0.076018155 0.0063636415 -0.022626331 0.056881446 0.042919956 0.00880474
0.0032744794 0.024689708 0.014437506 -0.0004782365 0.012827992 0.019557904 0.026328705 -0.0025272865
0.04559165 -0.04729934 0.02521416 -0.027495837 -0.052467868 0.06247358 0.013529188 -0.012677649
0.002362712 0.015948066 0.042153865 -0.024168633 0.010360095 0.0063020615 0.02539009 0.036239795
-0.009196866 -0.009848393 0.007751514 0.00484462 0.039443914 -0.01022081 0.014295042 -0.06024328
-0.017017046 -0.00558518 -0.027755214 -0.016164573 0.04918421 -0.038103614 0.01722159 0.01595108
-0.011467328 -0.036682066 0.0045842147 0.0008844123 0.049526602 -0.006886363 -0.039248534 0.004120381
0.020863025 -0.0051006693 -0.0132321585 0.0403275 -0.05591183 0.0067629972 -0.014004551 -0.006446799
-0.006101486 -0.020707633 -0.0224522 -0.04032037 -0.034671914 -0.008822901 -0.1098051 -0.013892559
-0.048899 0.039612576 -0.023770478 -0.05425574 0.029125748 -0.023664052 0.05379576 0.038266946
-0.0018004708 0.0317357 -0.06958109 0.080916405 -0.00019145018 -0.016207362 0.03637291 -0.03564437
-0.004612556 0.038294747 -0.013220197 -0.025774242 -0.027018053 -0.02006918 -0.06351948 0.0058025536
0.07746082 0.024294857 0.016572148 0.06304973 0.021181518 0.015714392 -0.012867978 0.0018081905
-0.013619501 0.016687986 -0.028362585 -0.085452996 -0.01635703 0.018162869 0.0017609193 -0.021252047
0.08208521 0.021766476 -0.012566695 0.023221996 0.0047612474 0.0031966162 -0.046497986 -0.010914585
-0.057424836 0.04234496 -0.00032699486 -0.023888445 0.003290876 -0.0011862846 0.0050318358 -0.041020863
-0.011243575 -0.02456423 0.04721113 0.00011961862 0.043671954 -0.024047375 0.0697841 0.0050224494
0.0421915 0.03716465 -0.0043737274 0.025835915 -0.0195705 -0.0319563 -0.01024058 -0.028092636
-0.027961338 -0.022560485 -0.060679402 -0.0761946 0.011881866 0.03030401 -0.007255723 -0.015385821
0.27663076 0.0059087854 0.008394519 0.036463317 0.034314226 0.021226494 -0.026761465 -0.001725254
-0.00990853 0.028883697 -0.06205538 -0.008579547 0.016437378 0.026014647 -0.066335425 0.0372162
-0.006989372 -0.025757 9.286828e-05 -0.024057236 -0.036747914 0.08518234 -0.043738116 0.031531747
-0.033601042 0.0041669914 0.10045411 -0.024589706 -0.049320992 0.0077951453 -0.027907303 0.041797347
-0.033235237 0.014724622 -0.026389727 -0.016103618 -0.009901107 -0.037283216 0.017492391 -0.04983792
-0.051606085 -0.051475786 -0.01798825 0.0034005719 -0.021439724 0.034256905 -0.0138757955 0.0070776786
-0.040563628 -0.043493927 -0.023855858 0.014136826 0.033520844 0.03308513 -0.04723309 -0.021528868
0.048580103 -0.02190028 0.017103657 0.0064607486 -0.006557367 -0.038571868 -0.04409469 0.018653614
-0.047703832 -0.036617566 0.025555117 0.0030220468 0.030946864 -0.028564084 0.0056763794 -0.0067223143
0.015142471 -0.032532122 -0.02615047 -0.017503958 0.0046616825 -3.0042302e-06 0.026777659 0.019519217
0.021595227 -0.0076870406 0.04687332 -0.0037872214 0.047488876 0.002055403 -0.022236502 -0.022268789
0.059326537 -0.20205681 -0.017545128 0.010124348 -4.6337786e-06 0.03346352 -0.032012127 0.013175027
-0.060816105 -0.009538696 -0.038857225 0.014296643 -0.026839495 -0.109843105 0.0031151352 0.014740733
00000000: a200 84bc 8e52 83bd 68af 9bbd 1886 d03b
00000010: db5a b9bc 85fc 683d d6cc 2f3d c241 103c
00000020: a698 563b 1242 ca3c 4a8b 6c3c d1bb fab9
00000030: 802c 523c e637 a03c 4caf d73c d5a0 25bb
00000040: 4fbe 3a3d f4bc 41bd ed8d ce3c f33e e1bc
00000050: 8ce8 56bd 4ce4 7f3d 87a9 5d3c eab5 4fbc
00000060: bbd7 1a3b 85a5 823c 88a9 2c3d 4cfd c5bc
00000070: 63bd 293c 8681 ce3b e1fe cf3c 2e70 143d
00000080: 74ae 16bc 275b 21bc 6a00 fe3b 9ebf 9e3b
00000090: f18f 213d 2f75 27bc c035 6a3c a8c1 76bd
000000a0: 5567 8bbc e303 b7bb e75e e3bc 916b 84bc
000000b0: 6275 493d 8912 1cbd 4b14 8d3c d7ab 823c
000000c0: 76e1 3bbc ef3f 16bd 2e37 963b e8d7 673a
000000d0: 68dc 4a3d 00a7 e1bb 12c3 20bd 4304 873b
000000e0: efe8 aa3c 8423 a7bb b2cb 58bc 732e 253d
000000f0: ce03 65bd 229c dd3b 5873 65bc ab3f d3bb
00000100: f9ee c7bb 0ea3 a9bc aded b7bc f926 25bd
00000110: 2304 0ebd ee8d 10bc 7fe1 e0bd 9e9d 63bc
00000120: 514a 48bd cc40 223d 4eba c2bc 443b 5ebd
00000130: 1f99 ee3c 1ddb c1bc f158 5c3d cdbd 1c3d
00000140: c6fd ebba 4bfd 013d 8880 8ebd 80b7 a53d
00000150: 04c0 48b9 4dc5 84bc c3fb 143d d5ff 11bd
00000160: ed24 97bb f4da 1c3d 8699 58bc 8124 d3bc
00000170: f754 ddbc 1f68 a4bc 8016 82bd 5923 be3b
00000180: c7a3 9e3d 0206 c73c 50c2 873c 3820 813d
00000190: dd84 ad3c 78bb 803c 36d4 52bc ce00 ed3a
000001a0: 5424 5fbc 3eb5 883c a758 e8bc fb01 afbd
000001b0: 2eff 85bc 4cca 943c a6ce e63a c618 aebc
000001c0: 4a1c a83d 9c4f b23c 8ae4 4dbc 0e3c be3c
000001d0: 3d04 9c3b 527e 513b ac74 3ebd 16d3 32bc
000001e0: 4e36 6bbd e971 2d3d 8270 abb9 b3b1 c3bc
000001f0: bdab 573b 1b7d 9bba 19e2 a43b 7e05 28bd
00000200: f936 38bc ed3a c9bc 7560 413d c2db fa38
00000210: 5de1 323d 00ff c4bc f7ea 8e3d 5c93 a43b
00000220: ffd0 2c3d f639 183d 7c51 8fbb d7a5 d33c
00000230: 5052 a0bc 9ce4 02bd 1bc8 27bc 8722 e6bc
00000240: 2d0f e5bc c4d0 b8bc f78a 78bd ea0b 9cbd
00000250: 28ac 423c 1d40 f83c 6ac1 edbb d014 7cbc
00000260: 8ca2 8d3e 7c9e c13b 2a89 093c 8f5a 153d
00000270: 138d 0c3d 2fe3 ad3c dc3a dbbc eb21 e2ba
00000280: 6357 22bc 819d ec3c c82d 7ebd 3a91 0cbc
00000290: aea7 863c ab1c d53c deda 87bd 0470 183d
000002a0: 1a07 e5bb 5800 d3bc 47c2 c238 ae13 c5bc
000002b0: fb84 16bd 1474 ae3d bd26 33bd 6f27 013d
000002c0: 3fa1 09bd 428b 883b e2ba cd3d 5a70 c9bc
000002d0: cf04 4abd 6b6e ff3b db9d e4bc b233 2b3d
000002e0: ac21 08bd 8a3f 713c 452f d8bc bceb 83bc
000002f0: 4138 22bc 49b6 18bd 344c 8f3c d922 4cbd
00000300: e760 53bd 46d8 52bd 185c 93bc 21dc 5e3b
00000310: 5ca2 afbc f850 0c3d 4e57 63bc dfeb e73b
00000320: 0c26 26bd b026 32bd 5c6d c3bc 259e 673c
00000330: 274d 093d 4684 073d 7c77 41bd 4f5d b0bc
00000340: eefb 463d 3768 b3bc f81c 8c3c b0b4 d33b
00000350: 2edf d6bb 89fd 1dbd a29c 34bd 77cf 983c
00000360: 1865 43bd 4dfc 15bd f758 d13c 880d 463b
00000370: 4784 fd3c 3aff e9bc ec00 ba3b dc46 dcbb
00000380: 2018 783c 6740 05bd 8339 d6bc 7664 8fbc
00000390: 07c1 983b 489c 49b6 d25c db3c c4e6 9f3c
000003a0: 79e8 b03c 92e3 fbbb 3dfe 3f3d 0833 78bb
000003b0: b283 423d f1b3 063b 5329 b6bc 096d b6bc
000003c0: 6200 733d fbe7 4ebe cdba 8fbc 98e0 253c
000003d0: db7b 9bb6 0b11 093d 261f 03bd 12dc 573c
000003e0: 4f1a 79bd 3148 1cbc c128 1fbd 783c 6a3c
000003f0: 80de dbbc 6cf5 e0bd 4c27 4c3b 1e83 713c
