.taste_cache/emb/b1f8069ba6dbcc74bbdbf32b28f3694a.npy (npy, 2176 bytes, 1 tensors)

array f4 [512]
-0.0018962418 0.0709439 -0.098148145 -0.013647316 -0.040407337 0.05755718 0.086985335 -0.032248136
0.0074271327 0.062139966 0.018676888 -0.02051654 0.013120784 0.03935519 0.013760888 0.039170112
0.044185553 -0.0060554966 0.028969025 -0.022692913 -0.061018832 0.025018083 -0.0007952881 -0.02756953
-0.0020174382 0.0737588 0.043705817 -0.07266584 0.0018399964 0.016427124 0.03566909 0.026929723
0.018682007 0.014097298 -0.01455535 0.02237229 0.031245627 -0.010793413 0.035134986 -0.07818763
-0.006477892 -0.0094551705 -0.0040295026 -0.03399462 0.036114916 -0.011702622 0.024507526 0.049381934
-0.0013899333 -0.00909713 0.057421997 -0.01951449 0.015810903 0.045301717 -0.04232057 0.021423876
0.029297393 -0.035780724 -0.03472605 0.053484134 -0.035930954 -0.03306407 0.026238725 -0.029508386
-0.017721675 -0.0005397635 -0.030941755 -0.041935142 -0.008306651 -0.0022541028 -0.12088752 -0.0039416123
-0.011236267 0.026145825 -0.019543532 -0.1036898 -0.015325641 -0.020044459 0.014011197 0.019036107
-0.014033285 0.022746418 0.0058216252 0.03123429 -0.020031169 -0.009462451 0.03114172 0.013341636
-0.02410732 0.009817384 0.010874314 -0.006618894 -0.027892224 -0.0105121005 -0.048170507 0.027468488
0.019856779 -0.0067782835 -0.017652359 0.06136174 -0.028308546 -0.01762563 -0.017928157 -0.019024175
-0.013454311 0.005308597 -0.037695613 -0.023577807 -0.028670447 0.012786048 0.0032812469 -0.013628911
0.06246516 0.035972614 -0.06538828 -0.013629168 -0.028547807 -0.038026683 -0.0147006335 0.0066115456
-0.03501915 0.06750049 0.020965727 -0.051533073 0.032156132 -0.033097886 -0.04175022 -0.021928664
-0.03613356 -0.017724283 0.06921254 -0.04503658 0.020404002 -0.005479441 0.053143576 0.008686068
0.013476519 0.051482607 -0.038111627 0.018818554 0.016867073 -0.031575214 0.024953432 -0.03449017
-0.02305692 -0.008610324 -0.066002525 -0.066886745 0.030182611 0.057855245 -0.032925118 -0.022680297
0.2662083 0.013198008 0.040217005 0.057992 0.03378017 0.01713687 -0.034270883 0.0034638604
0.0013135286 -0.024769373 -0.03271958 0.0025293226 -0.0026887828 0.03159547 -0.049896613 0.030312443
0.02573457 0.044201758 0.0035869034 -0.026601754 -0.0020213064 0.061757483 -0.023772515 0.066663556
-0.045248847 0.028784435 0.06789892 0.028630497 -0.0574651 0.0010092121 -0.029482052 0.012796636
-0.029723853 0.010413679 0.030797934 -0.016116643 0.017233396 -0.0356914 0.04799279 0.013808469
-0.058488064 -0.024546312 0.0041510137 0.023884147 0.00049812463 0.03164424 -0.009098582 -0.008097551
-0.0015106068 0.012712626 -9.788992e-05 0.006391952 0.018824175 0.02714056 -0.05098914 -0.024915654
0.03769901 -0.04727498 -0.0093903765 0.07099884 0.015458764 -0.07776675 -0.032170963 0.03621718
-0.026630836 -0.02807502 0.03181516 0.036718182 0.05940817 -0.024884276 0.009394827 0.010129212
0.0035065971 -0.019977726 -0.023258427 -0.03501711 0.006794134 0.009520278 -0.028831763 0.0058863736
-0.033518802 7.12408e-05 0.063505605 -0.0182054 0.008873976 -0.039108265 -0.03444711 -0.04494248
0.03809433 -0.20436282 -0.01856025 0.00509122 -0.0019620422 0.0012521944 -0.024979407 0.07240688
-0.043959677 0.015663544 -0.075924456 0.044083923 -0.028373145 -0.12094572 -0.043425713 -0.034936976
00000000: 518b f8ba 094b 913d e501 c9bd fe98 5fbc
00000010: 2a82 25bd 14c1 6b3d 5e25 b23d 9f16 04bd
00000020: 4e5f f33b 7a86 7e3d 4600 993c 4e12 a8bc
00000030: 8ff8 563c e832 213d 5975 613c d770 203d
00000040: e9fb 343d 306d c6bb 7350 ed3c 7de6 b9bc
00000050: e2ee 79bd b9f2 cc3c e27a 50ba 7fd9 e1bc
00000060: ff36 04bb db0e 973d df04 333d d4d1 94bd
00000070: 092c f13a 2d92 863c c019 123d b99b dc3c
00000080: 020b 993c 5af8 663c 9079 6ebc 1846 b73c
00000090: d4f6 ff3c dbd6 30bc b4e9 0f3d d620 a0bd
000000a0: 7f44 d4bb dce9 1abc eb09 84bb f13d 0bbd
000000b0: 3ced 133d 5bbc 3fbc 02c4 c83c b644 4a3d
000000c0: 6c2e b6ba 210c 15bc 5433 6b3d dadc 9fbc
000000d0: de85 813c 4b8e 393d 5658 2dbd 2081 af3c
000000e0: 1601 f03c cf8e 12bd e73c 0ebd 2e12 5b3d
000000f0: 562c 13bd 316e 07bd 98f2 d63c 92bb f1bc
00000100: 0c2d 91bc ea7e 0dba 9079 fdbc 2fc4 2bbd
00000110: 9f18 08bc 92b9 13bb e093 f7bd a428 81bb
00000120: 5218 38bc c52f d63c c219 a0bc 515b d4bd
00000130: 6618 7bbc 4734 a4bc 388f 653c 9cf1 9b3c
00000140: ddeb 65bc b256 ba3c 55c3 be3b 0edf ff3c
00000150: 6818 a4bc 6508 1bbc ec1c ff3c e196 5a3c
00000160: b77c c5bc 18d9 203c 2e2a 323c 4fe3 d8bb
00000170: 3c7e e4bc f23a 2cbc 704e 45bd 9805 e13c
00000180: afaa a23c 5d1c debb ae9b 90bc 7356 7b3d
00000190: 53e7 e7bc a063 90bc 12de 92bc 96d8 9bbc
000001a0: 786f 5cbc bdf3 ad3b b766 1abd 3f26 c1bc
000001b0: 49de eabc 937c 513c 300a 573b cc4b 5fbc
000001c0: 78db 7f3d 0558 133d 4aea 85bd e04c 5fbc
000001d0: 17dd e9bc dec1 1bbd edda 70bc aaa5 d83b
000001e0: 3d70 0fbd b23d 8a3d 51c0 ab3c 5814 53bd
000001f0: 26b6 033d a691 07bd 4702 2bbd bea3 b3bc
00000200: c900 14bd 8432 91bc 4ebf 8d3d 4778 38bd
00000210: 4b26 a73c e28c b3bb 14ad 593d 0250 0e3c
00000220: 9ecc 5c3c 6ddf 523d f01a 1cbd 5e29 9a3c
00000230: d12c 8a3c 0355 01bd 246b cc3c 9145 0dbd
00000240: dee1 bcbc 5112 0dbc 552c 87bd ebfb 88bd
00000250: 8641 f73c 9ff9 6c3d 7ddc 06bd 08cc b9bc
00000260: 744c 883e 753c 583c 96ba 243d 0589 6d3d
00000270: 135d 0a3d 9f62 8c3c a05f 0cbd ef01 633b
00000280: b52a ac3a 24e9 cabc f704 06bd fec2 253b
00000290: 4a36 30bb 406a 013d 6460 4cbd cd51 f83c
000002a0: 4ed1 d23c e70c 353d 4112 6b3b eceb d9bc
000002b0: e577 04bb 6af5 7c3d 94be c2bc e786 883d
000002c0: db56 39bd 56cd eb3c 970e 8b3d 818a ea3c
000002d0: 8660 6bbd 8a47 843a 5884 f1bc fba8 513c
000002e0: 707f f3bc 239e 2a3c f34b fc3c 0d07 84bc
000002f0: 0d2d 8d3c 2531 12bd 1694 443d eb3c 623c
00000300: 2e91 6fbd 5915 c9bc 3a05 883b b0a8 c33c
00000310: 9494 023a 649d 013d 3812 15bc 97ab 04bc
00000320: 8eff c5ba 9e48 503c 404a cdb8 9473 d13b
00000330: 2835 9a3c e155 de3c fdd9 50bd ea1b ccbc
00000340: 476a 1a3d 69a3 41bd 18da 19bc d767 913d
00000350: c146 7d3c 2c44 9fbd b3c5 03bd 7758 143d
00000360: e928 dabc 96fd e5bc 9d50 023d ce65 163d
00000370: fb55 733d 1cda cbbc c3ec 193c fff4 253c
00000380: f0ce 653b 54a8 a3bc 7588 bebc 1a6e 0fbd
00000390: 54a1 de3b f1fa 1b3c 9730 ecbc 7be2 c03b
000003a0: 034b 09bd 1d67 9538 3a0f 823d 7e23 95bc
000003b0: 2764 113c fd2f 20bd 6a18 0dbd 9b15 38bd
000003c0: cd08 1c3d 7d44 51be aa0b 98bc 40d4 a63b
000003d0: 9b95 00bb ac20 a43a 9da1 ccbc 0f4a 943d
000003e0: 100f 34bd d550 803c 487e 9bbd 5891 343d
000003f0: cc6e e8bc 64b2 f7bd 29df 31bd 131a 0fbd
