.taste_cache/emb/b24cad81fefd4dc3a195d96fd34c72c3.npy (npy, 2176 bytes, 1 tensors)

array f4 [512]
0	0xbc1648e4	-0.009172652
1	0xbda2572e	-0.079267845
2	0xbd1bf5f4	-0.038076356
3	0xbc91b3df	-0.017785965
4	0xbc3f6822	-0.011682542
5	0x3d123670	0.035696447
6	0x3da349a9	0.07973034
7	0xbc3b57d7	-0.011434517
8	0x3c4e411a	0.012588764
9	0x3d4d7e35	0.05016919
10	0x3caceec6	0.02110995
11	0xbb097834	-0.0020976188
12	0x3c68b491	0.014203207
13	0x3ce5a871	0.02803442
14	0x3ce572b1	0.02800879
15	0x3c08342b	0.008313219
16	0x3c5f2d76	0.013621679
17	0x3b72cdf9	0.0037049039
18	0x3c0efd68	0.008727409
19	0xbcc31c67	-0.023817254
20	0xbcacd751	-0.021098765
21	0x3c3064db	0.010766233
22	0x3d3b36bc	0.045706496
23	0xbc8f8e13	-0.017523801
24	0xbcb0443a	-0.021516908
25	0x3d46f171	0.0485701
26	0x3d01509c	0.031571016
27	0xbdbdfd5c	-0.0927684
28	0xbc8c52d1	-0.017129334
29	0x3cd8a5bc	0.026446216
30	0x3d1d4575	0.038396318
31	0x3ce7c34b	0.028291365
32	0x3c8245bb	0.01590239
33	0x3c5a6b67	0.013331271
34	0x3b46d0df	0.00303369
35	0x3d78ff9c	0.060790643
36	0x3cd8b153	0.026451742
37	0xbc58809b	-0.013214256
38	0x3c2ea285	0.010658865
39	0xbdd78a6e	-0.1052445
40	0xb9bbd8bf	-0.00035828908
41	0xbc672dba	-0.014110023
42	0x3b7887e5	0.0037922796
43	0xbcaa5154	-0.020790733
44	0x3ce74d38	0.028235063
45	0xbd2c74d7	-0.042103615
46	0x392dd85b	0.00016579164
47	0x3d300dc0	0.042981863
48	0xbce679fb	-0.028134337
49	0xbc7ca791	-0.01542081
50	0x3cc51573	0.02405808
51	0xbc82b6d3	-0.015956318
52	0x3d503ac2	0.050837286
53	0x3d558c93	0.052136015
54	0xbd1d3889	-0.038383994
55	0x3c90477e	0.017612215
56	0x3d0aa584	0.033849254
57	0xba6d5494	-0.00090534356
58	0xbd4b3403	-0.04961015
59	0x3d847a12	0.064685956
60	0xbd0031d6	-0.031297527
61	0xbd19e009	-0.037567172
62	0x3cbc5086	0.022987615
63	0xbd3b4cdd	-0.0457276
64	0xbcfae42f	-0.030626385
65	0xbc79fb48	-0.015257664
66	0xbc96d358	-0.018411323
67	0x3cf005ac	0.02929958
68	0xbcaf0fb2	-0.021369789
69	0xbcbed03d	-0.023292655
70	0xbdc96345	-0.09833387
71	0xbbbf9c52	-0.0058474923
72	0xbcb82386	-0.022477876
73	0xbbd8ebe2	-0.0066199163
74	0xbb164433	-0.0022928833
75	0xbd8a0610	-0.067394376
76	0xbc8636b2	-0.016383503
77	0xbcf43d43	-0.029814368
78	0x3d07fd91	0.033200804
79	0x3d40ee61	0.047102336
80	0xbd0d28a9	-0.034462605
81	0x3c3719c4	0.011175577
82	0xbd255c65	-0.040371317
83	0x3cc95c16	0.024580043
84	0xbc9a3e04	-0.0188284
85	0xbcb75ff2	-0.022384617
86	0x3d163ab0	0.036677063
87	0xbd5a0b59	-0.05323348
88	0x3c2ae3b8	0.010430269
89	0x3cbf359a	0.023340989
90	0x3c3e4067	0.011612034
91	0xbc8deb47	-0.017324103
92	0xbcf5cef6	-0.030005913
93	0xbce113f9	-0.027475344
94	0xbcdd5867	-0.027019693
95	0x3c98214c	0.018570565
96	0x3d00bc2a	0.031429447
97	0x3c505f86	0.012718087
98	0xbad92419	-0.0016566544
99	0x3d79d3c7	0.060992982
100	0xbbef2169	-0.007297684
101	0xbc189384	-0.009312514
102	0xbcb71900	-0.022350788
103	0x3ca788e4	0.020451017
104	0xba873d1f	-0.0010317898
105	0x3c972c53	0.018453753
106	0x3c50ac20	0.01273635
107	0x3ae46c06	0.0017427213
108	0xbc8bad4a	-0.017050404
109	0x3c96fd5d	0.01843136
110	0x3b5985f8	0.0033191424
111	0xbcfe4f4d	-0.031043673
112	0x3d15fbc3	0.03661705
113	0x3caf20e7	0.021377994
114	0xbd4b7ed4	-0.0496815
115	0xbbd6923f	-0.0065481956
116	0x3c9f0cbc	0.019415252
117	0xbc9ed313	-0.019387757
118	0xbcacbb50	-0.021085411
119	0x3b220e1b	0.0024727646
120	0xbcedb0c4	-0.029014952
121	0x3d1f98fd	0.03896426
122	0x3c1065db	0.008813347
123	0xbd220e28	-0.03956428
124	0x3d0c7612	0.034292288
125	0xbb65bdcf	-0.0035055762
126	0xbce87666	-0.02837677
127	0xbcdbb715	-0.026820699
128	0xbd4af9d4	-0.04955466
129	0xbc48d2dc	-0.012257304
130	0x3d4a7539	0.0494282
131	0xbd501b1e	-0.05080711
132	0x3c44d3cb	0.012013386
133	0x3ce2af25	0.027671406
134	0x3c827862	0.015926544
135	0xbc4d7660	-0.01254043
136	0x3d0d2d8b	0.03446726
137	0x3cd7c02c	0.026336752
138	0xbc345f11	-0.011008994
139	0xbca1f22f	-0.019768802
140	0x3b0b0906	0.0021215095
141	0xbd2ba7e5	-0.041908164
142	0x3cf8b163	0.030358022
143	0xbd2e8ccb	-0.04261474
144	0xbcd91f1c	-0.026504092
145	0x3ca37b4e	0.019956257
146	0xbd6e1f8e	-0.05813556
147	0xbd678a3d	-0.05652832
148	0x3ba5094b	0.005036508
149	0x3d443855	0.047905285
150	0xbcfc0229	-0.030762749
151	0xbd190454	-0.037357643
152	0x3e86517a	0.26234037
153	0x3b40158a	0.0029309713
154	0x3d2fd1d8	0.042924732
155	0x3d82ac5e	0.06380533
156	0x3d58ec16	0.052959524
157	0x3c524f87	0.012836344
158	0xbcd724a3	-0.026262587
159	0xbbe676c8	-0.007033203
160	0xbb264572	-0.0025370982
161	0xbc99e364	-0.018785186
162	0xbd65d205	-0.056108493
163	0x3c344959	0.011003816
164	0xbcee6fd1	-0.029106053
165	0x3d315cb7	0.04330131
166	0xbdaaeab5	-0.08345548
167	0x3d01688b	0.03159384
168	0x3c421e3b	0.011848028
169	0x3c4ef8b1	0.012632535
170	0x3c094a03	0.008379462
171	0x3bf38872	0.007432037
172	0x3c5272da	0.012844766
173	0x3d9d87c6	0.07691912
174	0x3ba1c5df	0.004936918
175	0x3d9f635c	0.07782623
176	0xbd6096f2	-0.054831453
177	0xbaee437d	-0.0018178072
178	0x3e3d745c	0.18501419
179	0x3c076cf4	0.008265723
180	0xbcfffcdf	-0.031248508
181	0xbc8d870e	-0.017276313
182	0xbd4727d9	-0.048621986
183	0x3cfb9496	0.0307105
184	0xbda45e9d	-0.080258586
185	0xbb64dcbc	-0.0034921607
186	0xbb95e36f	-0.0045742313
187	0xbd1b96f3	-0.037985753
188	0x3c097a09	0.008390912
189	0xbcd48ab0	-0.025945038
190	0x3ccc5087	0.024940742
191	0xbd14f1b7	-0.03636333
192	0xbce31211	-0.027718576
193	0xbcc7d02a	-0.024391253
194	0x3c9a670a	0.018847961
195	0x3d3e99e2	0.046533473
196	0x3ce9940c	0.028512977
197	0x3d7cd5a0	0.061727166
198	0xbc80188a	-0.015636701
199	0xbc43a5d0	-0.011941388
200	0x3ce3fc62	0.027830306
201	0x3ce9b324	0.028527804
202	0x3d61e578	0.05515048
203	0x3c08a267	0.008339501
204	0x3d785767	0.06063023
205	0x3b8eb324	0.0043548513
206	0xbc5d704d	-0.013515544
207	0xbcb4c0fa	-0.022064675
208	0x3d2e984d	0.042625714
209	0xbd445710	-0.04793459
210	0x3c1d5ffb	0.009605403
211	0x3d197264	0.037462607
212	0xbb9ef1a7	-0.0048505845
213	0xbd49225a	-0.049105026
214	0xbcdbeba6	-0.026845764
215	0x3cb0d93e	0.021587964
216	0xbc374e7f	-0.0111881485
217	0xbb7ff7dc	-0.0039057648
218	0x3c5aa96c	0.013346057
219	0x3d11e063	0.035614382
220	0x3d79fbe0	0.061031222
221	0xbd3693cb	-0.04457454
222	0x3c6818af	0.014166041
223	0x3cc0ba6d	0.023526395
224	0x3d0aab50	0.033854783
225	0xbd3eb6ae	-0.046560936
226	0xbbeb618a	-0.0071832584
227	0xbcea55fb	-0.028605452
228	0x3d371261	0.044695262
229	0x3c9fd61c	0.019511275
230	0xbc97d9bc	-0.018536441
231	0x3d05789a	0.032585718
232	0xbcf001aa	-0.029297668
233	0x3b9c23c8	0.0047650076
234	0x3d8e6398	0.0695259
235	0xbd16f1d7	-0.03685173
236	0xba00c1df	-0.00049117015
237	0xbd4ce212	-0.050020285
238	0xbc8e468e	-0.017367627
239	0xbd45f3f5	-0.04832836
240	0x3d756416	0.059909903
241	0xbe22a1da	-0.15882054
242	0x3d22b9a6	0.03972783
243	0xbc66638d	-0.014061821
244	0x3afcd798	0.0019290326
245	0xbbf7edbf	-0.0075661833
246	0xbd31e80e	-0.043434195
247	0x3d935545	0.07193998
248	0xbdb1607d	-0.08660982
249	0xbc202a28	-0.009775676
250	0xbdc6f1ba	-0.097140744
251	0x3d44762c	0.04796426
252	0xbc8b85ce	-0.017031576
253	0xbdc97be2	-0.09838082
254	0xbc2b565e	-0.010457603
255	0xbbc40edd	-0.005983217
