.taste_cache/emb/b25c1f685d4348f5f54b56b0cd815cbc.npy (npy, 2176 bytes, 1 tensors)

array f4 [512]
0	0x3b71adb9	0.0036877228
1	0xbd1c219e	-0.038117997
2	0xbd780b3e	-0.060557596
3	0xbc9b84c4	-0.018984206
4	0xbd158dc5	-0.036512155
5	0x3d161b83	0.03664733
6	0x3dbf8c8a	0.093529776
7	0xbae889b5	-0.0017741235
8	0xb86ba986	-5.6186247e-05
9	0x3cc12379	0.023576485
10	0x3c56e83f	0.013116895
11	0x3ca53d5e	0.020170864
12	0xbb261756	-0.00253435
13	0x3d410acd	0.04712944
14	0x3c1a5af7	0.009421102
15	0x3c23cec0	0.0099980235
16	0x3d4d112b	0.0500652
17	0x3c2b7d2c	0.010466855
18	0xbb088a62	-0.0020834436
19	0xbce9c5b4	-0.028536655
20	0xbd80a646	-0.06281714
21	0x3d34fde8	0.044187456
22	0x3d3724c9	0.044712815
23	0xbb0fa8a6	-0.002192059
24	0x3a89f910	0.0010526497
25	0x3c918463	0.017763322
26	0x3d74733f	0.05968022
27	0xbd297ae1	-0.041376952
28	0x3c3d4dee	0.011554224
29	0x3c79f480	0.015256047
30	0x3ce2dc8b	0.027693054
31	0x3cbfd544	0.023417123
32	0x3a8d385b	0.0010774242
33	0x3cbcd154	0.023049034
34	0x3cb0e13c	0.021591775
35	0x3cb04e6d	0.021521771
36	0x3cc78ab8	0.024358138
37	0xbc1d5a4f	-0.009604051
38	0x3cf3eacb	0.029775044
39	0xbdbd1f02	-0.0923443
40	0x3c8cc1ce	0.017182257
41	0xbce9131e	-0.028451499
42	0xbd6231e1	-0.05522335
43	0xbc96f529	-0.018427448
44	0x3cc49f86	0.024001848
45	0xbd1870fd	-0.03721713
46	0x3c4eed4b	0.012629817
47	0x3c81e4cc	0.01585617
48	0x3c2c043c	0.010499056
49	0x3b858801	0.004075051
50	0x3caa48cc	0.020786665
51	0xbcc7f399	-0.024408149
52	0x3d4ade1d	0.04952823
53	0x3c5f4cb8	0.013629131
54	0xbd21ea6c	-0.039530203
55	0x3cb01e5a	0.021498848
56	0x3cd82d1a	0.026388694
57	0xbc07ae70	-0.008281335
58	0xbd311b2f	-0.043238815
59	0x3d880e64	0.0664337
60	0xbcd488c8	-0.025944129
61	0xbc2c6d96	-0.010524174
62	0x3b127383	0.0022346682
63	0x3be36ece	0.006940699
64	0xbc912efc	-0.0177226
65	0xbc2eaf25	-0.010661875
66	0xbbad34a6	-0.005285817
67	0xbd2ed691	-0.042685095
68	0xbcabb463	-0.020960039
69	0xbbb332b3	-0.0054686903
70	0xbdd98ac2	-0.10622169
71	0xbc1b45ba	-0.009477073
72	0xbd5f11fb	-0.054460507
73	0x3d2ab3dc	0.041675434
74	0xbd359b16	-0.044337355
75	0xbd66d114	-0.056351736
76	0x3d4773e4	0.048694506
77	0xbbe4cb26	-0.006982225
78	0x3cdb5cae	0.026777592
79	0x3cf29909	0.029613988
80	0xbc8e8fbc	-0.017402522
81	0x3c99d34b	0.01877751
82	0xbb824de5	-0.003976571
83	0x3d063244	0.03276278
84	0x3bb376ce	0.005476809
85	0x3b7bc8db	0.003841928
86	0x3d6aa8a2	0.057289727
87	0xbcf367c2	-0.029712562
88	0x3b8084f4	0.0039220992
89	0x3d46b664	0.048513785
90	0xbce21084	-0.027595766
91	0xbb3798b2	-0.0028014597
92	0xbce89523	-0.028391426
93	0xba983292	-0.0011611751
94	0xbd5034fe	-0.050831787
95	0x3b3a14a8	0.002839366
96	0x3d542f64	0.051803008
97	0x3c0008af	0.00781457
98	0x3cbfba56	0.023404282
99	0x3dc6ee60	0.09713435
100	0xbc885b18	-0.016645
101	0xbc16572d	-0.009176058
102	0xbc2ce916	-0.010553619
103	0xbb091c76	-0.0020921505
104	0xbce4589f	-0.02787429
105	0x3aed774a	0.0018117216
106	0xbc120d85	-0.008914356
107	0xbd982926	-0.074297234
108	0xbcd61720	-0.026134074
109	0x3ccc8694	0.024966516
110	0x3bdc2d41	0.006719262
111	0xbb1decef	-0.0024097522
112	0x3d5a5047	0.053299215
113	0x3d1d5a3f	0.038416144
114	0x3baddd6f	0.005305938
115	0x3c3c8b50	0.011507824
116	0xbc2e4709	-0.010637053
117	0xbbd5d755	-0.0065259137
118	0xbc6ddbad	-0.014517707
119	0xbba59d70	-0.0050541684
120	0xbc9538ff	-0.018215654
121	0x3d6497e1	0.055808906
122	0x3c98d392	0.018655572
123	0xbd19a7ec	-0.03751366
124	0x3c9263e5	0.017869899
125	0xbd2177ac	-0.03942077
126	0xbc95ee43	-0.018302089
127	0xbcfc33f5	-0.030786494
128	0xba8a8a90	-0.0010569859
129	0xbcc03ecf	-0.02346745
130	0x3d2290d7	0.03968891
131	0xbcd3ce70	-0.025855273
132	0x3d316ae1	0.04331482
133	0x3b5c0613	0.0033572956
134	0x3d5e8a7a	0.05433128
135	0xbca7d1fb	-0.020485869
136	0x3cf8cc16	0.030370753
137	0x3d30d76d	0.043174196
138	0xbc041e03	-0.008063796
139	0x3c8577b9	0.01629244
140	0xbcb3b8d3	-0.021938717
141	0x3b940fec	0.0045184996
142	0xbbb5d28b	-0.0055487803
143	0xbcc48bfa	-0.023992527
144	0xbd73e53d	-0.05954479
145	0x3baffb54	0.005370537
146	0xbd855ec9	-0.065122195
147	0xbd9adb7f	-0.07561397
148	0xbbf1f6c9	-0.0073841554
149	0x3ccf900d	0.025337243
150	0xbcc772f5	-0.024346808
151	0xbc682a85	-0.014170294
152	0x3e9c920d	0.30580178
153	0x3c5e5ea1	0.013572366
154	0x3cd7df1d	0.026351506
155	0x3c804b36	0.015660863
156	0x3d68091d	0.056649316
157	0xbc1b9902	-0.009496929
158	0xbce34896	-0.027744573
159	0xbc98c179	-0.018646942
160	0xbb5ed44a	-0.0034001046
161	0x3c846ada	0.016164232
162	0xbc1f9d7f	-0.00974214
163	0x3c1d9481	0.009617926
164	0x3c7d5c69	0.015463927
165	0x3ca126f3	0.019671893
166	0xbdcf4f40	-0.101225376
167	0x3d2322ff	0.039828297
168	0xbb2681c6	-0.002540694
169	0xbbe642d8	-0.0070270114
170	0x3c60dbea	0.013724307
171	0xbce89e13	-0.028395688
172	0xbbd0f914	-0.0063773487
173	0x3d6edd52	0.058316536
174	0xbb838a49	-0.0040142876
175	0x3d200f7d	0.03907727
176	0xbc057d94	-0.008147616
177	0xba06d930	-0.0005144058
178	0x3db14e67	0.08657532
179	0x3c45f418	0.012082122
180	0xbca32535	-0.019915203
181	0x3ae1fda0	0.0017241724
182	0xbd093b90	-0.03350407
183	0x3cb08231	0.021546455
184	0xbd26e14c	-0.040742204
185	0x3c3ff479	0.011716002
186	0xbd007a5f	-0.031366702
187	0xbd4d2975	-0.050088365
188	0xbbf5d02f	-0.007501624
189	0xbc5a1659	-0.013310992
190	0x3d32f69c	0.043692216
191	0xbda1c3e0	-0.07898688
192	0xbd149554	-0.036275223
193	0xbcc541a2	-0.024079148
194	0x3bd45bd0	0.0064806715
195	0x3c567e69	0.013091662
196	0xbb9d8c81	-0.004808009
197	0x3d57a6a5	0.05264916
198	0xbc916bbb	-0.017751565
199	0xbc8b4b7d	-0.017003769
200	0xbc6dafdf	-0.014507263
201	0xbd20ff51	-0.03930599
202	0x3b17d91b	0.0023170176
203	0xbc22fcaa	-0.009947935
204	0x3c95b452	0.01827446
205	0xbc5d38e8	-0.013502337
206	0xbcce4980	-0.025181532
207	0xbc511765	-0.012761925
208	0x3ce14480	0.027498484
209	0xbc725713	-0.014791268
210	0xbb72dc07	-0.0037057416
211	0x3b4a0c93	0.0030830249
212	0xbc2f6278	-0.010704629
213	0xbd7cad75	-0.06168886
214	0xbcb88d69	-0.022528367
215	0xbc4a5cd2	-0.012351232
216	0xbd4be9fd	-0.049783695
217	0xbd31406e	-0.043274336
218	0x3bec6941	0.0072146957
219	0x3d921e96	0.0713474
220	0x3c99d31f	0.018777428
221	0xbd6c0032	-0.057617374
222	0xbd0c2f6a	-0.034224905
223	0xbc132ba6	-0.008982575
224	0x3cf8a33b	0.030351272
225	0xbbaac81a	-0.0052118422
226	0xbcda526b	-0.026650628
227	0xbce606ee	-0.028079476
228	0x3be622d8	0.0070231967
229	0x3c8a0cbb	0.016851773
230	0xbc87c50c	-0.016573451
231	0x3cca11e4	0.024666734
232	0x3b321bd6	0.0027177236
233	0x3c92bd82	0.01791263
234	0x3d3d8895	0.046272833
235	0xbad2f5c1	-0.0016094969
236	0x3d002db7	0.031293597
237	0xbd6d7ad8	-0.05797848
238	0x3c041f25	0.008064066
239	0xbc7e74ae	-0.015530748
240	0x3d193459	0.03740344
241	0xbe5b8f76	-0.21441445
242	0xbbb192d4	-0.0054191146
243	0xbc5173b4	-0.012783933
244	0x3c84a712	0.016192947
245	0x3cb64b95	0.022252837
246	0xbd2b6ce9	-0.04185191
247	0x3c59e7b0	0.0132998675
248	0xbd8db1da	-0.06918688
249	0x3b878eba	0.0041368874
250	0xbd87df08	-0.06634337
251	0x3cfd1515	0.030893842
252	0xbcc2628b	-0.02372863
253	0xbdd99a6a	-0.10625155
254	0xbc0659f7	-0.00820016
255	0x3c6eb5ea	0.014569739
