.taste_cache/emb/b29def464b074edcc0daab99c9253d96.npy (npy, 2176 bytes, 1 tensors)

array f4 [512]
000000 aa e9 22 3c 92 87 87 bd b7 e8 4a bd 23 ee c4 bc
       0.009943405 -0.06617655 -0.04953834 -0.024039334
000010 4d b0 45 bd cf 2a eb 3c 71 40 8d 3d 2a ce 96 3a
       -0.048263837 0.028706936 0.06897057 0.0011505533
000020 8b 2e 3b 3c 50 ce bd 3b 5c 76 05 3d 9b 95 ad 3b
       0.011424671 0.0057924166 0.03258358 0.0052973754
000030 a9 f6 88 bc aa ab a8 3c 7c d1 af 3c e8 61 2b 3d
       -0.01671918 0.020589668 0.021462195 0.041841418
000040 7e f8 ac 3c e7 56 88 bc 7a 04 c5 3c c4 f5 79 bc
       0.021114584 -0.016643 0.024049986 -0.015256349
000050 ea 46 72 bd 7e 5a cb 3c e6 4b 25 3d 5c d5 51 bc
       -0.05914966 0.024823423 0.040355586 -0.0128072165
000060 06 6a d9 3c 0b b0 f2 3c 7e 3b 5c 3d 30 c7 84 bd
       0.026539814 0.02962496 0.053767674 -0.064833045
000070 95 7d e5 bc 11 00 98 3c 8a 57 90 3c 4c f8 5a 3c
       -0.028013984 0.01855472 0.017619867 0.013364863
000080 60 a2 fe 3b 35 57 d2 3c 0f a2 53 3b 03 42 8c 3d
       0.0077708215 0.02567635 0.003229264 0.06848528
000090 35 69 06 3d 93 25 32 3c 3b 31 6f bc 0b f4 0a be
       0.032815177 0.010873216 -0.01459914 -0.13569658
0000a0 8d 95 10 3b 2f 46 9b ba ee c8 b7 bc e7 7f ad bc
       0.0022061795 -0.0011846478 -0.022434678 -0.021179153
0000b0 59 30 2c 3d 74 06 04 bd 1b be 9e 3b 27 66 2f 3d
       0.042038295 -0.032232717 0.0048444397 0.04282203
0000c0 7f 46 b4 bc 74 8b f3 3b db ef 62 3d 92 4d 3b bd
       -0.022006271 0.0074323956 0.055404525 -0.045728274
0000d0 f3 47 56 3d 11 e1 ba 3c a7 a2 4c bd bd b5 c7 3c
       0.05231471 0.022812398 -0.049959805 0.024378652
0000e0 91 2c 32 3d 3b 5d 1c 3c c7 dd b0 bd 98 8b 95 3d
       0.043499533 0.009543712 -0.08636051 0.07302016
0000f0 73 0a ae bc 5a ff 94 3b eb a6 85 bc 37 cf 32 bd
       -0.021245217 0.004547042 -0.016314944 -0.043654647
000100 5f 10 0f bc c3 99 f1 3c 28 29 f4 bc 10 87 07 bb
       -0.0087319305 0.029492265 -0.029804781 -0.0020679869
000110 a7 f2 01 bd 12 7b aa bb 6e 41 c4 bd de fd 28 3c
       -0.031725552 -0.0052026594 -0.09582792 0.010314433
000120 93 67 20 bd 4d 71 84 3c c7 a8 6c bc d3 39 9b bd
       -0.039161276 0.016167307 -0.0144445365 -0.075793885
000130 25 14 b1 3c 85 85 1b bd 47 a8 50 3c 30 b7 cb 3c
       0.021616051 -0.03796913 0.012735433 0.024867624
000140 3c 2c 0d bd d8 d3 c9 3c 68 01 fd bb 6c f3 ce 3c
       -0.034466013 0.024637148 -0.007721115 0.025262557
000150 3d b8 87 bb ea 3d a7 bc 37 83 20 3d 88 16 62 bc
       -0.004141836 -0.020415265 0.039187636 -0.013799317
000160 de f1 f8 bc eb 9a 2a 3d 58 53 e3 bb 0c 0d ea bb
       -0.030388769 0.041651648 -0.0069374256 -0.0071426686
000170 44 a9 5f bc 82 d7 51 bc e3 ed 56 bd 40 5b b4 3c
       -0.013651196 -0.012807729 -0.05247296 0.022016168
000180 63 ac 47 3d 48 37 c6 3a 8a 5c 1b 3c ec d9 32 3d
       0.048748385 0.0015122676 0.009482512 0.043664858
000190 fe ce a5 bb 13 7f a7 bc 66 d0 84 3b a7 f0 18 bc
       -0.005060076 -0.020446336 0.0040531633 -0.00933472
0001a0 9d a7 94 bb 21 0e 3e 3c 0c 46 cd 3a 28 8d ab bd
       -0.0045365826 0.011600048 0.0015661134 -0.08376533
0001b0 53 48 9f 3b 9b 52 19 3d ea af 2a bd 9d 77 12 bd
       0.0048609166 0.037432294 -0.04167167 -0.035758603
0001c0 f0 b7 68 3d 13 55 8e 3c 97 f2 cc bc b8 7b d1 3c
       0.05681604 0.01737455 -0.02501802 0.025571689
0001d0 03 20 45 bc b6 e7 22 bc 63 82 d8 bc 72 dc 36 bc
       -0.012031558 -0.0099429395 -0.02642936 -0.011160957
0001e0 47 29 4b bd 92 62 10 3d c7 a6 00 3d 47 9a e5 bc
       -0.049599912 0.035250254 0.03140905 -0.028027667
0001f0 67 41 53 3d 52 a1 c9 bc 47 5b 0b bc d9 d4 16 bb
       0.051576044 -0.024613056 -0.008505649 -0.002301505
000200 ab e5 c9 bc f0 98 7c bb fb f9 48 3d d2 38 36 bd
       -0.024645647 -0.0038543306 0.049066525 -0.04448778
000210 f2 d9 f6 3c 53 f0 12 3c 6a 2c 02 3d 0e 56 d1 3c
       0.030133221 0.008968431 0.031780638 0.02555373
000220 ec 29 38 3d 48 6c 2b 3d 74 1f f4 bc 51 2c d1 3c
       0.044961855 0.041851312 -0.029800154 0.025533827
000230 57 b6 b4 bc dd 08 30 bd ef 7f 4f 3c 0d f1 12 bd
       -0.022059603 -0.042977203 0.012664779 -0.035874415
000240 8c bd 80 bd ab 4c 25 bb a0 76 83 bd 4f b5 2e bd
       -0.06286153 -0.00252227 -0.0641911 -0.042653378
000250 46 48 e9 bc 85 7e ad 3c 69 96 d3 bb 6d 20 c9 bc
       -0.028476845 0.021178493 -0.0064571393 -0.024551595
000260 58 66 9c 3e cb 6e 8a bc dc ac 2c 3c 8d 66 89 3d
       0.30546832 -0.016898533 0.01053926 0.06709013
000270 44 d3 a2 3c f4 94 a0 3c 69 8f 08 bd 67 de 83 3c
       0.01987613 0.019602276 -0.03333989 0.01609726
000280 a1 f2 99 3c 62 79 d5 3b 84 8f 22 bd 24 87 c4 3c
       0.018792452 0.006514714 -0.03968765 0.023990221
000290 ed cb bf bb 56 9d 48 3c fb a9 83 bd 52 d7 4a 3d
       -0.0058531673 0.012244543 -0.064289056 0.04952175
0002a0 e1 b3 e3 3b 3a 2c 0e 3d 7d 5b e7 3b 7b 0c 00 bc
       0.0069489335 0.034710146 0.007060467 -0.007815476
0002b0 69 03 68 3c 3e 74 4a 3d 85 95 f2 3b f5 f8 f6 3d
       0.014160969 0.049427263 0.007403078 0.120592035
0002c0 a7 06 a7 bd 48 95 18 3d 9d 0d 02 3e f9 48 b0 bc
       -0.08155566 0.03725174 0.12700506 -0.021519171
0002d0 3b d1 4c bd 86 81 05 3c 5b 8a 8d bc 31 fb ce ba
       -0.050004225 0.008148557 -0.017277887 -0.0015791414
0002e0 d4 c1 30 bd 66 44 99 3b 85 b0 80 3c d4 8a 82 bb
       -0.0431536 0.004677343 0.015709171 -0.0039838348
0002f0 ab 3e 5b 3c 7e 87 d1 bc 4a d0 f4 3c 95 56 b9 bd
       0.01338164 -0.025577303 0.029884476 -0.09049717
000300 27 a4 9b 39 9a 1f 0e bc 75 f9 e1 3b 48 c3 1c 3d
       0.00029686207 -0.008674527 0.0068961927 0.038272172
000310 b0 97 01 3d 0f 15 5a 3d 64 be 66 bb 1c d0 50 bc
       0.0316388 0.05324274 -0.0035208696 -0.01274493
000320 16 c1 1b 3c 1e 2c 3b bc 1d 5d 06 3d aa 71 4d ba
       0.0095064845 -0.011424093 0.032803643 -0.00078370667
000330 9f 05 79 3c 34 ad b8 3c a1 0a 21 bd c1 aa 91 bc
       0.015199094 0.022543527 -0.039316777 -0.017781617
000340 bf 68 5c 3d ef 0e a3 bc 7f 0e bb 3c 49 1d a6 3b
       0.05381083 -0.019904582 0.02283406 0.005069409
000350 9a 50 2c 3c 17 be 99 bc cd d1 43 bc c0 66 f6 3c
       0.010517264 -0.0187674 -0.011951876 0.030078292
000360 c0 ad be bc c0 be 7f bc 64 af f1 3c 67 bd 29 3d
       -0.02327621 -0.015609443 0.029502578 0.041440394
000370 09 bd 33 3d f6 22 83 bd 6e d7 a9 3c e0 8f ce 3c
       0.04388145 -0.06403153 0.020732608 0.02521509
000380 f3 94 2a 3d e4 00 b7 bc 1a 44 97 bc a3 26 02 bd
       0.041645955 -0.022339292 -0.01846509 -0.031775128
000390 b4 fc 84 3c a0 ca ab 3c 0a 3a dd 3b 2c 1f b5 3c
       0.01623378 0.020970643 0.0067513036 0.02210959
0003a0 5e 5d e2 bb 57 c3 a1 3c c2 4d 5a 3d 32 60 1e bd
       -0.006908103 0.019746466 0.053296812 -0.038665958
0003b0 17 8a 23 bc 31 30 16 bd e5 e5 10 bd 06 cd 3f bd
       -0.009981654 -0.036667053 -0.035375495 -0.046826385
0003c0 b7 58 23 3d 60 e0 1e be 63 ce 31 3d 04 5d 0b 3c
       0.039879527 -0.1551528 0.043409716 0.008506063
0003d0 88 44 c2 3a 83 6a 64 3c 3d 6a c4 bc 34 ee 36 3b
       0.0014821449 0.01394141 -0.02397644 0.0027912976
0003e0 6d 33 96 bd 89 37 4c bc bf c5 89 bd 63 bb 29 3d
       -0.073340274 -0.0124644125 -0.0672717 0.04143847
0003f0 d4 27 8d bc 70 5d c4 bd a6 e1 f0 b9 e9 61 de bc
       -0.017230906 -0.09588134 -0.00045944488 -0.027146297
