.taste_cache/emb/b2cf53733950f699f78ef875dcc1b268.npy (npy, 2176 bytes, 1 tensors)

array f4 [512]
0	0xbd1ab5ef	-0.03777116
1	0xbd14fefb	-0.03637598
2	0xbcbaa569	-0.022783952
3	0xbb91cc4b	-0.0044494024
4	0xbd0b16f4	-0.033957437
5	0x3d286805	0.041114826
6	0x3dce04c9	0.100595064
7	0x3bf4fb8d	0.0074762763
8	0x3c99d61e	0.018778857
9	0x3d7f83be	0.0623815
10	0x3ce940e8	0.028473333
11	0xbd022a93	-0.031778883
12	0x3d262340	0.04056096
13	0x3d370521	0.044682626
14	0x3c838732	0.016055677
15	0x3be5839b	0.007004214
16	0x3d0324d6	0.03201755
17	0xbbda9b6f	-0.006671361
18	0x3cfe9461	0.031076612
19	0xbc4ddc90	-0.012564793
20	0xbd4f695b	-0.050637584
21	0x3d75dbb0	0.060023963
22	0x3c0d217a	0.0086139385
23	0xbcf36bae	-0.029714432
24	0xba8c99c0	-0.0010726973
25	0x3cc28a0a	0.023747463
26	0x3d811ddb	0.063045226
27	0xbd6d2e6e	-0.057905607
28	0x3ba63f10	0.0050734356
29	0x3caedabf	0.02134454
30	0x3ced1965	0.028942773
31	0x3c377169	0.011196473
32	0x3d345378	0.044024915
33	0x3c40da4d	0.011770797
34	0x3ca90485	0.020632038
35	0x3d06d650	0.032919228
36	0x3d60753f	0.054799315
37	0x3b2965ca	0.0025848025
38	0x3ca856cd	0.020549202
39	0xbd95f608	-0.07322317
40	0xbbb5f386	-0.005552712
41	0xbcbb52e1	-0.022866668
42	0xbd2b3803	-0.041801464
43	0xbcc7eca3	-0.02440483
44	0x3d64b614	0.055837706
45	0xbd117b14	-0.035517767
46	0xbb520d48	-0.0032051373
47	0x3cdd0e57	0.026984377
48	0x3c25651c	0.010094907
49	0xbca63d68	-0.020292953
50	0x3cede9c6	0.029042136
51	0xbc8ce8b3	-0.017200803
52	0x3d0dbd20	0.03460419
53	0x3c09d7c1	0.008413256
54	0xbc740625	-0.014894043
55	0x3c74dd61	0.014945359
56	0x3bf29fa8	0.0074042864
57	0x3ca4a825	0.020099709
58	0xbd83cd5e	-0.06435655
59	0x3d58e63b	0.05295394
60	0xbce3ab33	-0.027791595
61	0x3bac60f4	0.005260581
62	0x3d25b3b1	0.04045457
63	0x3c39c82f	0.011339231
64	0xbc9de3bb	-0.01927363
65	0x3c0c21b8	0.008552961
66	0xbce7a47e	-0.028276678
67	0x3b9a7110	0.004713185
68	0x3b1fa820	0.0024361685
69	0xbc3cb03c	-0.011516627
70	0xbde6e59f	-0.112742655
71	0xbc9702cd	-0.018433953
72	0xbd1e9182	-0.038712986
73	0x3cb9ac57	0.022665186
74	0xbd75419c	-0.059877023
75	0xbdb0d4b3	-0.08634319
76	0x3cf523dc	0.029924326
77	0xbc61b1b2	-0.013775276
78	0x3d5ac28e	0.053408198
79	0x3c9a6fde	0.01885217
80	0x3b54fc8a	0.0032499158
81	0x3cef30e4	0.029198118
82	0xbcb3a0ac	-0.0219272
83	0x3cce5703	0.025187975
84	0x3b88d31e	0.0041755578
85	0xbc0fb9a2	-0.008772286
86	0x3d24374c	0.040091798
87	0xbcd9977c	-0.026561491
88	0xbc846f85	-0.016166458
89	0x3cbdd86f	0.023174493
90	0xbb2163bc	-0.0024626097
91	0xbd0d786d	-0.034538675
92	0xbc931527	-0.017954422
93	0xbc9f1c0f	-0.019422559
94	0xbd294207	-0.041322734
95	0xbbfce7e4	-0.007718073
96	0x3d5312a2	0.05153144
97	0x3cd6ffd4	0.026245035
98	0x3c82a0e7	0.015945865
99	0x3d877dbe	0.0661578
100	0xbd314caa	-0.043286003
101	0x3b1df034	0.002409947
102	0xbc3846e5	-0.011247371
103	0x3b05e916	0.002043312
104	0xbc839e1d	-0.016066605
105	0xbbd8acb0	-0.006612383
106	0x3ac6eb4a	0.0015176323
107	0xbd3e7193	-0.04649503
108	0xbc31d38b	-0.010853658
109	0x3d197308	0.037463218
110	0x3c9d5d0e	0.019209411
111	0xbd1b99a0	-0.037988305
112	0x3d55a418	0.052158445
113	0x3d222b36	0.03959199
114	0xbca0a99f	-0.019612132
115	0x3d001d23	0.031277787
116	0xbc53a748	-0.012918301
117	0xbd171c21	-0.03689206
118	0xbcc943d3	-0.024568474
119	0x3a9f3084	0.0012145196
120	0xbced834d	-0.028993273
121	0x3ced4ab6	0.028966289
122	0x3b4e1c28	0.0031449888
123	0xbd275d50	-0.040860474
124	0x3c973962	0.01845998
125	0xbca87cd7	-0.02056734
126	0xbd15205e	-0.03640782
127	0xbc8451bf	-0.01615226
128	0xbb861bbd	-0.004092662
129	0xbd015708	-0.03157714
130	0x3d515eaa	0.05111567
131	0xbcd770cd	-0.026298905
132	0x3ccffb1d	0.025388295
133	0xbcb7bdfe	-0.022429463
134	0x3d1aeb09	0.037821803
135	0xbca23295	-0.01979951
136	0x3d012abe	0.031534903
137	0x3d0028d0	0.03128892
138	0xbccaaec9	-0.024741547
139	0x3d0dd457	0.03462633
140	0xbc881ec0	-0.016616225
141	0xbb0ee994	-0.0021806704
142	0x3c88f591	0.016718658
143	0xbd1694af	-0.03676289
144	0xbc9ea013	-0.019363439
145	0xbc2c31a1	-0.010509879
146	0xbd63d61a	-0.055624105
147	0xbdbfe177	-0.09369176
148	0x3c90930c	0.017648242
149	0x3cf886f6	0.030337792
150	0xbd13ff2f	-0.036132034
151	0xbd37efc8	-0.044906408
152	0x3e8b3a70	0.27193022
153	0x3c1fe3b5	0.009758879
154	0x3d0fb301	0.03508282
155	0x3cfe20eb	0.031021556
156	0x3d36ccd1	0.044628922
157	0x3cd01bab	0.025403818
158	0xbcea4d86	-0.02860142
159	0x3c9875c2	0.018610839
160	0x3d00951e	0.03139221
161	0x3cabcfff	0.020973204
162	0xbcdf6227	-0.027268482
163	0x3d0f4a85	0.034983177
164	0x3b78c981	0.0037961903
165	0x3cad48bf	0.021152852
166	0xbd87f7de	-0.06639074
167	0x3cabc6d4	0.020968832
168	0xbc9ffffc	-0.019531243
169	0xbc09d847	-0.008413381
170	0x3c3b253c	0.011422452
171	0xbcb1813c	-0.021668069
172	0xbbbb0f76	-0.00570863
173	0x3d9ba83d	0.07600448
174	0xbcaf4159	-0.021393465
175	0x3d5d8cf8	0.054089516
176	0xbd445621	-0.0479337
177	0x3bd2e073	0.006435448
178	0x3d636694	0.055517748
179	0x3c374b1b	0.01118734
180	0xbd30f547	-0.043202665
181	0x39ece2ff	0.00045182553
182	0xbd0e2007	-0.034698512
183	0x3d16df14	0.036833838
184	0xbd438787	-0.04773667
185	0x3bd18e64	0.006395148
186	0xbc9742e7	-0.018464519
187	0xbd26a703	-0.04068662
188	0x3cd52a18	0.026021048
189	0xbcae10ea	-0.0212483
190	0x3ceab41c	0.028650336
191	0xbdb08a01	-0.08620072
192	0xbd26b62f	-0.040701088
193	0xbcd02499	-0.025408076
194	0x3c36331d	0.011120585
195	0x3c83ff74	0.01611302
196	0xbbb0a161	-0.0053903316
197	0x3d537383	0.051623832
198	0xbb5e9e94	-0.0033969032
199	0xbcfa01ad	-0.030518377
200	0xbd0b3429	-0.03398529
201	0xbd290c05	-0.04127123
202	0xbcf098cc	-0.029369734
203	0x3c45e56e	0.012078626
204	0x3d38395d	0.04497658
205	0x3c6bb328	0.014385976
206	0xbd286874	-0.04111524
207	0xbcbde2e6	-0.023179483
208	0x3d183f13	0.037169527
209	0xbd12b7f4	-0.035819963
210	0x3cad1ef4	0.021132924
211	0x3c527ada	0.012846673
212	0xbcb05236	-0.021523576
213	0xbd935a05	-0.07194904
214	0xbd0eccc7	-0.03486326
215	0x3c55d2c6	0.013050741
216	0xbcc390d9	-0.02387278
217	0xbce84859	-0.02835481
218	0x3b96cad4	0.0046018157
219	0x3d6d4247	0.057924535
220	0x3d47b4a7	0.048756268
221	0xbd7dd93d	-0.061974753
222	0xbbaf01b6	-0.00534078
223	0xbb9ff700	-0.0048817396
224	0x3ca565cf	0.020190148
225	0xbba1c0e2	-0.0049363235
226	0xbce379b4	-0.027767994
227	0xbc9741f5	-0.018464068
228	0x3c8aaa64	0.016926952
229	0xbc2bc011	-0.010482804
230	0x3c5c1c3b	0.013434465
231	0x3c5a809e	0.013336329
232	0xbc2c3b19	-0.010512137
233	0x3b1d6e64	0.0024022097
234	0x3d999355	0.074988045
235	0x3c02fe26	0.007995164
236	0x3c87acd4	0.016561903
237	0xbd8f3049	-0.069916315
238	0xbbacbf04	-0.0052717943
239	0xbd5ca623	-0.053869378
240	0x3d35a9c7	0.044351365
241	0xbe54dee4	-0.20788151
242	0xbc2668e8	-0.010156848
243	0x3c9e1b2c	0.019300066
244	0xbbeea5fb	-0.00728297
245	0xbb2fc3d4	-0.0026819604
246	0xbd3d6d65	-0.046246905
247	0x3d5f71ce	0.054551892
248	0xbd8eabf5	-0.06966392
249	0xbcb3b96f	-0.021939008
250	0xbd626d8f	-0.055280264
251	0x3d25bbfb	0.040462475
252	0xbd02bd05	-0.031918544
253	0xbde6f846	-0.11277823
254	0xbd01ec32	-0.031719394
255	0xba53c9e8	-0.00080790976
