.taste_cache/emb/b2ed7e7256a0f049ef03676fdaead524.npy (npy, 2176 bytes, 1 tensors)

array f4 [512]
0	0xbbda89da	-0.006669265
1	0xbcaa47c2	-0.02078617
2	0xbda00be8	-0.07814771
3	0x3bdc449e	0.006722047
4	0xbd3ee10c	-0.04660134
5	0x3d310068	0.043213278
6	0x3db30483	0.08741095
7	0xbbfff730	-0.0078114495
8	0x3c27aabd	0.010233578
9	0x3d1fd218	0.03901872
10	0x3ccfe27b	0.025376549
11	0x3ac2236f	0.0014811585
12	0x3b090edc	0.0020913398
13	0x3d1ac951	0.037789647
14	0x3bbf65c4	0.005840989
15	0x3cb4602c	0.022018515
16	0x3d68b0f4	0.05680938
17	0xbc934276	-0.017976027
18	0xbb84fe32	-0.0040586228
19	0xbc59016f	-0.013244971
20	0xbd81ba59	-0.06334371
21	0x3cffc318	0.031220958
22	0x3cd03753	0.025417006
23	0xbca6862d	-0.020327652
24	0xbb26de70	-0.0025462173
25	0x3d847736	0.0646805
26	0x3d45f05a	0.04832492
27	0xbd9820cb	-0.0742813
28	0x3ab524f9	0.0013820223
29	0x3c7124ec	0.0147182755
30	0x3d178cae	0.036999397
31	0x3ccd2f88	0.025047079
32	0x3c9712d4	0.018441595
33	0x3d63e36c	0.05563681
34	0x3caaf61f	0.020869313
35	0x3d0ce5ee	0.034398966
36	0x3d596fc4	0.053085104
37	0x3a839d7b	0.001004144
38	0x3cb5f64a	0.022212166
39	0xbdce38b6	-0.100694105
40	0x3ba021ea	0.0048868554
41	0xbc031603	-0.0080008535
42	0xbccd7f2e	-0.025085058
43	0xbcc9df72	-0.02464268
44	0x3c9ff866	0.019527625
45	0xbc999080	-0.01874566
46	0x3c90e900	0.017689228
47	0x3d5694eb	0.052388113
48	0xbcd9c19a	-0.026581574
49	0xbc002dce	-0.007823421
50	0x3cc2f334	0.023797609
51	0xbd1ef9b6	-0.03881236
52	0x3d0c8ea9	0.03431574
53	0x3cc3520c	0.023842834
54	0xbcd5311f	-0.0260244
55	0x3d0ae234	0.03390713
56	0x3c9dd6a6	0.019267391
57	0x3c83b0d5	0.016075531
58	0xbd9b2cfd	-0.0757694
59	0x3d6a7d8e	0.057248645
60	0xbd258f54	-0.04041989
61	0x3bf990df	0.007616147
62	0x3bc90cdc	0.006135566
63	0xbc7f10a0	-0.015567929
64	0x3b56d0f9	0.0032778366
65	0x3bbef08f	0.0058270167
66	0xbc3342bc	-0.010941204
67	0x3c767226	0.015041864
68	0xbcb88ff5	-0.022529582
69	0xbad22627	-0.0016033099
70	0xbde84de7	-0.11342984
71	0xbc10fb9a	-0.008849049
72	0xbd32b2f5	-0.043627698
73	0x3c21df4f	0.009879901
74	0xbca19dfc	-0.019728653
75	0xbdcef645	-0.10105566
76	0x3cba5268	0.022744372
77	0xbcabce31	-0.020972343
78	0x3d062cca	0.032757558
79	0x3c917481	0.017755749
80	0xbcfe3dac	-0.031035267
81	0x3d1d416d	0.038392473
82	0x3ab15d0b	0.0013531757
83	0x3d2c6c3d	0.04209541
84	0xbc8967fe	-0.01677322
85	0xbcbc64fa	-0.022997368
86	0x3d6d2d2a	0.0579044
87	0xbccdd27a	-0.025124777
88	0xbbf393d1	-0.0074333926
89	0x3c2d53b4	0.010579038
90	0x3b811663	0.0039394363
91	0xbc7ce6fa	-0.0154359285
92	0xbc6d0829	-0.014467278
93	0xbcb7bb0c	-0.022428058
94	0xbd8b1e3e	-0.067928776
95	0x3c66ecce	0.014094545
96	0x3d5a5cdb	0.05331121
97	0x3c6274cc	0.013821792
98	0x3b939126	0.004503387
99	0x3d9c3062	0.07626416
100	0xbad5fbcc	-0.0016325652
101	0xbccb4c40	-0.024816632
102	0x3c34a1c9	0.011024901
103	0x3c342cd6	0.010997018
104	0xbcc0945b	-0.023508241
105	0x3c489df8	0.012244694
106	0xbcafd6b3	-0.021464681
107	0xbca25c6a	-0.019819457
108	0x3ae6dff3	0.001761435
109	0x3c04061d	0.008058098
110	0xbcdcd89c	-0.026958756
111	0xbd2107fa	-0.039314248
112	0x3d671b58	0.05642256
113	0x3cdb04c3	0.026735669
114	0xbd64a28e	-0.055819087
115	0xbc365c71	-0.011130438
116	0xbcdfcf9d	-0.027320677
117	0xbd35aef1	-0.04435629
118	0xbbf1fca8	-0.0073848553
119	0xbb9a22a5	-0.004703837
120	0xbd1cb929	-0.03826252
121	0x3d6a6417	0.05722436
122	0x3cc39448	0.023874417
123	0xbd5bb4bd	-0.053639162
124	0x3cccd42d	0.025003517
125	0xbd00b891	-0.031426016
126	0xbd0b31d1	-0.033983056
127	0xb8a91a15	-8.063406e-05
128	0xbd163920	-0.036675572
129	0xbbe0c38d	-0.006859249
130	0x3d7c1fa5	0.061553616
131	0xbd6c15c5	-0.05763795
132	0x3cbcef1c	0.023063235
133	0x3a0a7c43	0.00052827987
134	0x3cbb1d2b	0.022841057
135	0xbaae83a7	-0.0013314382
136	0x3d1380e1	0.03601158
137	0x3d10b8e5	0.03533258
138	0xbd3c1e40	-0.045927286
139	0x3c4474fc	0.011990782
140	0x3c31220e	0.010811342
141	0xbcdd9c6b	-0.027052125
142	0x3c4f8ed9	0.012668335
143	0xbd7b8959	-0.06141028
144	0xbcfe253c	-0.031023614
145	0xbc12ac74	-0.008952249
146	0xbd6508d9	-0.05591664
147	0xbd6aaeed	-0.05729573
148	0xbb8405a7	-0.004028994
149	0x3c3deba1	0.011591823
150	0x3bd30966	0.0064403294
151	0xbd0944d2	-0.033512898
152	0x3e9441f2	0.28956562
153	0x3c6fa953	0.014627772
154	0x3d01955a	0.031636573
155	0x3d60f5d3	0.054921936
156	0x3d0ab444	0.03386332
157	0x3cf74541	0.03018439
158	0xbcc215c4	-0.02369202
159	0xbc482591	-0.012215988
160	0x3c33abe7	0.010966278
161	0xbc0c14ee	-0.008549912
162	0xbd01baf4	-0.031672433
163	0x3d03e75e	0.03220307
164	0x3b4b7ba0	0.0031049028
165	0x3d5f28d2	0.05448229
166	0xbd999810	-0.07499707
167	0x3d49fc5e	0.04931294
168	0x3a29d173	0.0006478049
169	0x3d283da4	0.04107441
170	0x3c6955a6	0.014241612
171	0xbbc8d1cf	-0.0061285268
172	0x3b04db9d	0.0020272501
173	0x3d53e301	0.05173016
174	0xbc19c09f	-0.009384303
175	0x3d60d071	0.054886285
176	0xbd379dae	-0.04482811
177	0x3d03fb4e	0.032222085
178	0x3e05b23b	0.13056271
179	0xbc3d1f69	-0.011543133
180	0xbd38bb20	-0.04510033
181	0x3bfcd3ad	0.0077156634
182	0xbcbddbb0	-0.023176044
183	0x3bc97be8	0.006148804
184	0xbcd2a9cf	-0.025715737
185	0x3b55bc24	0.0032613361
186	0xbba0d59a	-0.004908276
187	0xbb11222e	-0.0022145617
188	0x3cb2c791	0.021823676
189	0xbd0fe2d0	-0.035128415
190	0x3c7f30d4	0.015575606
191	0xbd243334	-0.040087894
192	0xbd1b637a	-0.037936665
193	0x3b845528	0.0040384717
194	0x3cab54b1	0.020914407
195	0x3c1832fb	0.009289498
196	0x3cc80b00	0.024419308
197	0x3cc14f20	0.0235973
198	0x3adc03d2	0.0016785807
199	0xbb86cf62	-0.0041140774
200	0xbabaae16	-0.0014242555
201	0x3be34a81	0.006936372
202	0x3ccb6aba	0.024831165
203	0x3cf84146	0.030304562
204	0x3c5f6ded	0.013637048
205	0x3c018d15	0.007907172
206	0xbd33bc0d	-0.04388051
207	0xbd3b4d45	-0.045727987
208	0x3d435fcc	0.04769878
209	0xbd03e6d5	-0.03220256
210	0x3c8212c7	0.015878094
211	0x3c501c38	0.01270204
212	0x3ac4a5e5	0.0015003054
213	0xbd260bbe	-0.040538542
214	0x3bb8c38a	0.0056385444
215	0x3d33dcd5	0.043911774
216	0xbd2a4b85	-0.041575927
217	0xbc937503	-0.018000131
218	0x3cbf1220	0.023324072
219	0x3d24e0f2	0.040253587
220	0x3d4cb845	0.04998042
221	0xbd31fb6b	-0.04345266
222	0x3b63ebd5	0.0034778018
223	0x3cc75e50	0.024336964
224	0x3d4c9e20	0.049955487
225	0xbbe320ef	-0.006931416
226	0xbca2b6e3	-0.019862598
227	0xbd418152	-0.04724247
228	0x3c4e023b	0.012573774
229	0x3bf33450	0.0074220076
230	0xbc4b34ca	-0.012402723
231	0x3bc8d433	0.0061288117
232	0xbc71dee6	-0.014762616
233	0xba187b9c	-0.0005816759
234	0x3d9ffa76	0.078114435
235	0xbcbc4503	-0.022982126
236	0x3ccfc152	0.025360737
237	0xbcf19c53	-0.029493487
238	0xbcde2f68	-0.027122214
239	0xbd4228cd	-0.047402192
240	0x3dafb921	0.085802324
241	0xbe44dcd8	-0.1922487
242	0xbc433f9d	-0.011917022
243	0x3c8c27a0	0.017108738
244	0x3bb88111	0.0056306203
245	0x3c581ed1	0.013190941
246	0xbc263523	-0.010144505
247	0x3dc17d77	0.09447759
248	0xbd856129	-0.065126725
249	0x38a0f587	7.6751276e-05
250	0xbd8a89f6	-0.06764595
251	0x3d11cfaa	0.035598435
252	0xbce6b5c7	-0.02816285
253	0xbde85f8c	-0.11346349
254	0xbc79e346	-0.01525194
255	0xbd065986	-0.03280022
