.taste_cache/emb/b3dda08f0d2368851d8e6b0ead1597ac.npy (npy, 2176 bytes, 1 tensors)

array f4 [512]
00000000: 9824 f7bb 5061 5abc 06c1 73bd df5b 7a3c
00000010: ce25 0ebd 0c81 b63c 9bac 993d b2f4 473c
00000020: 3603 7e3c 938e 6c3d 6010 263d 5655 e9bb
00000030: f1c2 b6ba c984 3d3d 9a6d c33c 6bec e43c
00000040: 6829 0b3c 488f 60bc 18a5 2a3c 6f09 c3bc
00000050: 123a 73bd 7097 2b3d 3f31 003d f6b0 eeba
00000060: 871a 393c 6e49 123d 0279 463d b8b1 4ebd
00000070: 5ddf 53bc 05d1 b7bc d303 0b3d 9b59 d73c
00000080: 8681 deba 78ec 753c 11ce e23b 6201 643d
00000090: 568d ee3c bc1d 9a3b 7f03 963c e1ed aebd
000000a0: edda 9ebc 53e5 96ba 7417 473c d296 8bbc
000000b0: ae94 003d 36ac afbc c822 5f3c 12dd 2f3d
000000c0: 9a54 06bd 20b4 d5bb f793 3c3d ae8d 71bb
000000d0: 68da aa3c b664 1d3d d95a a8bc e7c9 fe3b
000000e0: d511 d83c d422 b03c 8e50 9fbd 6c35 8b3d
000000f0: 6d01 28bd 04f5 bebb 389d 263b fba9 4ebd
00000100: 2599 d9bb 4048 cd3b 6e1f 70bd 9c49 5f3b
00000110: eedb a8bc 57fc 153c c89c dcbd 5c57 8fbb
00000120: c9a3 01bd 5ec3 893c d7fa b4bc d49d afbd
00000130: 50e1 b23c ff4e 94bc feb1 073d 5a8b 183d
00000140: 05a5 d0bc 6eee d43c ecd1 a2bb 0096 cf3c
00000150: a9b4 99bc 5e8e d4bc 51cc 473d 1edc ecbc
00000160: fe82 87bc e652 383c 7b8b 853c 2e8e afbc
00000170: e51c f7bc 692c 41bc cc4b 1cbd 4ad5 a83a
00000180: b30e 103d 4db2 b63c bb84 bfbc 3f2d 633d
00000190: 67ff 523a 714b 9ebc f08a d9bc 1197 073c
000001a0: f1c3 d0bc 976f b83b c5e2 1dbc 0f7f b1bc
000001b0: 0b57 503b 5442 f33b 931a e6bc 452a 1fbd
000001c0: 1d4c 743d 8197 0c3d 90c9 30bd 9fee 033c
000001d0: 5b2a b4bb 7be5 debc dd05 8bba b63a 34bc
000001e0: 9a18 b9bc d55a 353d a9a1 3c3c 9d67 1ebd
000001f0: a2eb e23c 2d95 eebc 5c9c 80bc 3f60 0bbd
00000200: ae4a 60bd e8ab 73bc f869 093d 074d 4abd
00000210: fb62 403d 77ea 953c 77fd 873c c043 dabc
00000220: 3e51 3c3d 514d 4d3c 6319 4dbd 48f5 613d
00000230: 5a99 e23a 070e 08bd a2f1 693d 15b6 11bd
00000240: 0410 79bc fdba a93b 9dc3 bfbd 9a08 abbd
00000250: ec5f 17bc bf03 713d c5f9 60bc b31d c1bc
00000260: 928e 913e 0fb0 e0bb c86f e83c e950 233d
00000270: 0b8d 313d 8502 c43c ae99 6dbc 9902 17bb
00000280: 7d98 e53c de82 1fbc dcc2 43bd 7e76 163d
00000290: f27b 37bc 243e 5e3d f18f 8cbd f1f0 0e3d
000002a0: d72f a93b a33b d33c 0cb4 5939 02e2 3e3b
000002b0: 58f1 833c 0a6b 793d 0eb9 773a 866d 3e3d
000002c0: 7c66 1fbd bad1 f23c 9461 dc3d ae7b 90bb
000002d0: 9b96 5ebd b8bf 87bb 1cd1 b8bc 564d 9f3c
000002e0: 8543 75bd 55cf b3bc 20cc ca3a 0961 c9bc
000002f0: 55b6 cd3c fd8d 30bd 974b c33c 0ef9 abbd
00000300: 3ccb bebc 3e58 efbb 7bea 1c3b 7012 193d
00000310: 47c5 1c3d b4b8 063d 12b7 69bb 26b5 95bc
00000320: 4e73 9d3c d4c5 bb3b 6c4b 883c 5285 973c
00000330: 47b8 ae3c 8959 2a3c 2542 05bd 948b 54bd
00000340: abe8 5a3d 013b 30bd bef8 ea3c 4fd5 303c
00000350: 0013 cfbc 043a 73bd d5d9 3bbc 24dd ed3c
00000360: 8dbc e7bc cbac 44bc 30a3 043d abb6 e93c
00000370: dc70 9d3d cab9 cfbc df95 86bb f3f4 e13c
00000380: 0039 313d ce8a 0dbd f5d2 0abd 8fdf 19bd
00000390: 8a13 0d3c 8cc2 be3b 0c51 5c3c c987 df3b
000003a0: f5cf 6c3c 6f98 04bb 9d5d 923d ba1f f5bc
000003b0: 590d 833c eee3 49bd bb61 debc 6fc0 80bd
000003c0: 9745 803d 0ead 1fbe 6b7b 53bc 2e51 a83c
000003d0: 634d f63b be07 d73b 28d3 35bd 58b3 a93d
000003e0: d593 adbd c00c d23b e398 a1bd 6337 893d
000003f0: 9a05 13bc afb0 dcbd 7a22 41bc e425 be3b
-0.007542204 -0.013328865 -0.059510253 0.015280693 -0.034704022 0.022278331 0.07503625 0.012204336
0.015503695 0.057753157 0.04054296 -0.0071207685 -0.0013943595 0.046269212 0.023855973 0.027944764
0.008493759 -0.013706036 0.010415338 -0.02380821 -0.059381552 0.04189247 0.031296965 -0.0018210697
0.0112978285 0.03571456 0.048455246 -0.050462455 -0.012931672 -0.022438535 0.033939194 0.026287844
-0.0016975857 0.015009992 0.0069215377 0.05566538 0.029120129 0.0047032516 0.018312214 -0.085414656
-0.019391501 -0.0011512436 0.012151588 -0.01703969 0.031391792 -0.021444421 0.013619132 0.04293544
-0.032795526 -0.0065217167 0.046039548 -0.003685813 0.020856097 0.038426124 -0.020551132 0.0077755335
0.02637569 0.021500982 -0.077790365 0.06797299 -0.041016985 -0.005827548 0.00254233 -0.050455075
-0.0066405707 0.0062647164 -0.058623724 0.0034070974 -0.020612683 0.009154401 -0.10772091 -0.0043744277
-0.03165034 0.016816791 -0.022092266 -0.08575025 0.021835953 -0.018104075 0.03312873 0.03724227
-0.025469312 0.025992598 -0.0049688723 0.02534008 -0.018762903 -0.025946792 0.048778836 -0.028913554
-0.016541954 0.011250233 0.016301861 -0.021430101 -0.030165145 -0.011790373 -0.038158223 0.0012880948
0.03517027 0.022301817 -0.02337872 0.055463072 0.0008048922 -0.019323083 -0.026555508 0.008275763
-0.025484057 0.005628537 -0.009636586 -0.021667032 0.0031790163 0.0074236784 -0.028088843 -0.03885867
0.0596429 0.034324173 -0.043160975 0.008052497 -0.005498213 -0.027209034 -0.0010606606 -0.011000326
-0.022594739 0.044276077 0.011513152 -0.038673032 0.02770025 -0.029123867 -0.015699558 -0.034027334
-0.05475872 -0.014872529 0.033548325 -0.049389865 0.046969395 0.018300278 0.016600354 -0.026643634
0.045975916 0.012530641 -0.05007304 0.05516556 0.0017288134 -0.033216503 0.057115205 -0.035574038
-0.015201572 0.0051797614 -0.09363482 -0.0835125 -0.009239178 0.058841463 -0.013731425 -0.023573732
0.28429085 -0.0068569253 0.028373614 0.039872084 0.0433474 0.023926983 -0.014501972 -0.002304232
0.028026814 -0.009735791 -0.047793254 0.036734097 -0.011198984 0.05425848 -0.06863392 0.03489775
0.0051631737 0.025785273 0.00020761805 0.002912641 0.016106293 0.060893096 0.00094498775 0.04649117
-0.038916096 0.029641021 0.10760799 -0.004409275 -0.054342847 -0.0041427277 -0.022560649 0.019446056
-0.059878845 -0.02194945 0.0015472211 -0.024582403 0.025111357 -0.04310416 0.023839755 -0.08397113
-0.02329027 -0.0073042205 0.0023943472 0.0373711 0.038274076 0.03289099 -0.0035662097 -0.018274855
0.01922002 0.00573037 0.016637526 0.01849619 0.021328105 0.010397323 -0.032533783 -0.051890925
0.053444546 -0.04302502 0.028683063 0.010793044 -0.025277615 -0.0593815 -0.011465509 0.029036112
-0.02828815 -0.012004088 0.03238219 0.028529486 0.07687542 -0.025357146 -0.0041072215 0.027582621
0.04326725 -0.034556203 -0.03389259 -0.037566718 0.0086106155 0.0058215316 0.013447057 0.006821607
0.014453878 -0.002023246 0.071467616 -0.029922355 0.015997576 -0.049289636 -0.02714621 -0.06286704
0.06263273 -0.15593359 -0.012907843 0.020546522 0.0075165494 0.0065622022 -0.044390827 0.0828616
-0.08475462 0.0064102113 -0.07890489 0.06700017 -0.0089735035 -0.10775887 -0.011788005 0.0058028568
