.taste_cache/emb/b4f22bd497513ccee7062470fbf3f39f.npy (npy, 2176 bytes, 1 tensors)

array f4 [512]
0	0xbcaa66cc	-0.02080097
1	0xbc8764b8	-0.016527519
2	0xbd37a794	-0.04483755
3	0xbce253ba	-0.027627815
4	0xbcdc509e	-0.02689391
5	0x3d7fe12d	0.062470604
6	0x3d8426f4	0.06452742
7	0xbbbb66c0	-0.005719036
8	0x3d012375	0.031527955
9	0x3d5a389e	0.05327665
10	0x3cf284ca	0.029604334
11	0xbc4f25c9	-0.012643286
12	0x3c37d19c	0.011219408
13	0x3d182183	0.037141334
14	0x3abbacf4	0.0014318512
15	0xbbc3980b	-0.0059690527
16	0x3d376aff	0.044779774
17	0xbadfe6cd	-0.0017082334
18	0x39cd6180	0.0003917329
19	0xbd094d7a	-0.033521153
20	0xbd062671	-0.032751504
21	0x391470e2	0.00014156432
22	0x3c31d36d	0.0108536305
23	0xbcd1b25d	-0.025597746
24	0xbc571ac9	-0.013128945
25	0x3d3a7189	0.04551843
26	0x3cc5149f	0.024057684
27	0xbd6ca598	-0.05777511
28	0xbbaf40ca	-0.0053482996
29	0x3b0cff6e	0.0021514553
30	0x3c868940	0.016422868
31	0x3c89f762	0.016841594
32	0x3cb3232d	0.021867359
33	0x3ce2d56f	0.027689664
34	0x3d030bde	0.03199374
35	0x3d188c1d	0.037242997
36	0x3d38e825	0.045143265
37	0xbbefb2df	-0.0073150243
38	0x3bf95d90	0.0076100305
39	0xbd2b7c4d	-0.04186659
40	0x3b000aa4	0.0019537592
41	0xbcf51f1b	-0.029922059
42	0xbcd6f791	-0.026241096
43	0xbd2a4062	-0.041565306
44	0x3d5561df	0.05209529
45	0xbc89752f	-0.01677951
46	0x3cbcd0a5	0.023048708
47	0x3d08149e	0.033222787
48	0xbb10b9cb	-0.0022083397
49	0xbcde04e7	-0.027101947
50	0x3d1cf708	0.038321525
51	0xbcda1f7a	-0.026626337
52	0x3d8b4f1d	0.06802199
53	0x3c72dbab	0.014822881
54	0x3be2d43e	0.006922274
55	0xb9da8c11	-0.00041684558
56	0x3c0e71e1	0.008694143
57	0xbbdc8d97	-0.006730746
58	0xbd757d9f	-0.059934255
59	0x3d9726a6	0.073804185
60	0xbc7862d7	-0.015160284
61	0xbbf8b98f	-0.0075904797
62	0x3c649a7d	0.0139528485
63	0xbd15629f	-0.036471006
64	0xbce5b1db	-0.02803891
65	0x3cecdeb7	0.028914792
66	0xbd23f01e	-0.040023915
67	0xbccfe2c3	-0.025376683
68	0xbc8cf41d	-0.017206246
69	0x3b8bcd57	0.004266422
70	0xbde14e1c	-0.11001226
71	0xbbd218a4	-0.006411629
72	0xbd89a704	-0.06721309
73	0x3cb4727e	0.02202725
74	0xbcc52a31	-0.02406797
75	0xbd86c015	-0.065796055
76	0x3d2b2e1a	0.041792013
77	0xbd56537c	-0.05232571
78	0x3d1c0b71	0.03809685
79	0x3cb9d584	0.02268482
80	0xbb938619	-0.0045020697
81	0x3d38a31a	0.04507742
82	0xbb9ad650	-0.004725255
83	0x3cfecfde	0.031104978
84	0x3cb115af	0.021616785
85	0xbceb074d	-0.028690005
86	0x3d656c27	0.056011345
87	0xbb5c304a	-0.0033598118
88	0xbd2adf90	-0.041717112
89	0x3c800219	0.015626
90	0x3c451fab	0.012031476
91	0xbd292716	-0.04129704
92	0xbc6d5647	-0.014485902
93	0xbc8a52ad	-0.016885126
94	0xbd7329cc	-0.059366032
95	0x3c8ecaf2	0.017430756
96	0x3d3770a0	0.044785142
97	0x3becd882	0.007227958
98	0xbc28208b	-0.010261665
99	0x3d841c6a	0.06450732
100	0xbc533808	-0.012891777
101	0xbbedc2bf	-0.0072558816
102	0xbbd8dcd7	-0.006618123
103	0x3c670c20	0.014102012
104	0xbc460d7b	-0.012088175
105	0xbcba61fd	-0.022751803
106	0xbc6971f8	-0.014248364
107	0xbcfec0f4	-0.031097867
108	0xbc504659	-0.012712085
109	0x3bdb1b04	0.00668657
110	0x3d323b78	0.043513745
111	0xbc43f3de	-0.011959998
112	0x3d140947	0.03614166
113	0x3cd3b11d	0.02584129
114	0xbcd1c95c	-0.025608711
115	0x3c62e48a	0.013848433
116	0xbc6570da	-0.014003957
117	0xbcef1a9c	-0.029187493
118	0xbc3fb878	-0.011701696
119	0x3c2a152c	0.010381024
120	0xbbe8496b	-0.00708883
121	0x3d17d8dc	0.037072048
122	0x3c703a81	0.014662386
123	0xbccd2999	-0.02504425
124	0x3c2acc80	0.010424733
125	0xbd2c61b9	-0.042085383
126	0xbd87d2f5	-0.06632034
127	0xbcbd84b0	-0.02313456
128	0xbc786781	-0.015161396
129	0xbbc4e409	-0.006008629
130	0x3d6a47ec	0.057197496
131	0xbd3b95ff	-0.045797344
132	0x3d19b2a5	0.037523884
133	0x3b7a3089	0.0038175902
134	0x3d470b17	0.04859456
135	0x3a904b17	0.0011008707
136	0x3d231200	0.039812088
137	0x3d35cee6	0.044386767
138	0xbcba07e4	-0.02270884
139	0x3c8360cc	0.016037367
140	0x3bc5152c	0.006014487
141	0xbc8c332b	-0.017114243
142	0x3ca3fc1e	0.02001768
143	0xbcab533c	-0.020913713
144	0xbbb4cbaf	-0.005517445
145	0xbc0c34d9	-0.008557522
146	0xbd4d7dff	-0.050168987
147	0xbd83b385	-0.06430725
148	0x3caeba39	0.021329032
149	0x3d7e49a6	0.062081955
150	0xbcd4a712	-0.025958572
151	0xbd0d6ab7	-0.0345256
152	0x3e99af9c	0.30016792
153	0x3cc99feb	0.024612388
154	0x3d453f74	0.048156217
155	0x3d15248d	0.03641181
156	0x3d1456c7	0.03621557
157	0x3bdf2cdc	0.0068107676
158	0xbd1b9024	-0.03797926
159	0xbb44a024	-0.0030002678
160	0xbb2da780	-0.0026497543
161	0x3c4d732d	0.012539667
162	0xbd24bc7a	-0.040218808
163	0x3c6a7049	0.014308997
164	0x3b7b1dde	0.0038317363
165	0x3c67cf0b	0.014148484
166	0xbd81dfbc	-0.06341502
167	0x3d245dee	0.04012864
168	0x3bafc597	0.0053641307
169	0x3bf186ed	0.0073708207
170	0x3b8fadde	0.0043847403
171	0xbc6bc515	-0.01439025
172	0x3d16066a	0.03662721
173	0x3d84f40a	0.06491859
174	0xbbe1734c	-0.0068801995
175	0x3cbee86e	0.02330419
176	0xbcea5295	-0.028603831
177	0x3b9e29fa	0.0048267813
178	0x3e285c1b	0.16441385
179	0x3ccd3220	0.025048316
180	0xbd31c6e3	-0.043402564
181	0xbaacb5ce	-0.0013176741
182	0xbd2d00c9	-0.042237077
183	0x3c6746e1	0.01411602
184	0xbd35bc92	-0.044369288
185	0x3cce983f	0.025219081
186	0x3cc55d5c	0.024092369
187	0xbcb4111f	-0.02198082
188	0x3d0c1143	0.03419615
189	0xbb4e001d	-0.0031433173
190	0x3d384785	0.04499008
191	0xbd538db8	-0.051648825
192	0xbd12bab9	-0.035822604
193	0xbcfe7955	-0.031063715
194	0x3c908e70	0.017646044
195	0xbad87268	-0.0016513588
196	0xbb8e3eb8	-0.0043409728
197	0x3d52ff07	0.051512744
198	0xbbfd4328	-0.007728953
199	0xbd0ace4d	-0.03388815
200	0xbc23e304	-0.010002855
201	0xbbf5795c	-0.007491274
202	0x3b4bbe38	0.003108872
203	0x3c98db79	0.01865934
204	0x3cf93b94	0.030423917
205	0xbc625861	-0.0138150165
206	0xbd3af01f	-0.045639154
207	0xbcd437e7	-0.025905563
208	0x3ceda0f5	0.029007414
209	0xbcd563ee	-0.026048627
210	0x3ac3bc47	0.001493343
211	0x3ce56d51	0.028006228
212	0xbcbad0ef	-0.022804705
213	0xbd81a84a	-0.06330927
214	0xbd0e9965	-0.034814257
215	0x3c6dcc76	0.014514079
216	0xbcdbaede	-0.026816782
217	0xbd46c45e	-0.048527114
218	0x3c060c29	0.00818161
219	0x3d1e464b	0.038641255
220	0x3d6da321	0.0580169
221	0xbd308472	-0.04309506
222	0xbc42b0b4	-0.01188295
223	0x3ccac528	0.024752215
224	0x3d050927	0.03247943
225	0xbbc0f7e6	-0.005888927
226	0xbc9cb633	-0.019129848
227	0xbd119f5f	-0.03555238
228	0x3aae5425	0.0013300224
229	0x3c05c8cc	0.0081655495
230	0xbcb18d9d	-0.021673972
231	0x3d04f620	0.032461286
232	0xbc1968f7	-0.0093634045
233	0x3c82b6a7	0.015956236
234	0x3d89ff32	0.06738128
235	0xbc68c285	-0.014206533
236	0xbc57a81e	-0.013162641
237	0xbd95f1e1	-0.07321525
238	0xbbb10aac	-0.0054028835
239	0xbd22b51f	-0.03972351
240	0x3d771058	0.06031832
241	0xbe41dfd1	-0.18933035
242	0xbca2f785	-0.019893417
243	0x3c0337ca	0.008008907
244	0xbbc80d65	-0.0061051124
245	0xbaa96021	-0.0012922325
246	0xbd01a95d	-0.031655658
247	0x3d672cdc	0.056439266
248	0xbd94bc17	-0.07262438
249	0xbc2f35fa	-0.010694021
250	0xbd8c916a	-0.06863673
251	0x3d420b56	0.047374092
252	0xbd1aaa86	-0.03776028
253	0xbde16020	-0.110046625
254	0xbd02c00a	-0.031921424
255	0x3c75fb47	0.0150135225
