.taste_cache/emb/b5984e828dde8d37ec102b40856f14b5.npy (npy, 2176 bytes, 1 tensors)

array f4 [512]
000000 8e e5 87 bc b7 47 b5 3a c7 59 86 bd 31 12 d2 bb
       -0.016588952 0.0013830577 -0.065600924 -0.00641086
000010 3b 7e 84 bd a7 4d 85 3d 91 b1 ac 3d 88 00 8a 3a
       -0.06469389 0.06508952 0.084323056 0.0010528723
000020 0b 4c ee 3c 4d 54 8b 3d fa 1e 67 bc cb ba ed bb
       0.029088994 0.068031885 -0.0141065065 -0.0072549335
000030 a5 a2 60 3c 4d 5b 06 bb 49 23 86 bc 3d 97 6d bc
       0.0137106525 -0.0020501197 -0.016374247 -0.01450139
000040 2f 39 aa 3c ac fd e9 bc 03 18 bd 3c 9c c2 44 bd
       0.02077922 -0.028563343 0.023082739 -0.048037156
000050 3c 6d ed bc 32 e6 31 3d 03 8b 8a bb 6b 10 b0 3c
       -0.028982751 0.043432422 -0.0042279973 0.021492204
000060 09 c8 f0 bb 54 a2 f2 3b 6f 98 22 3c 0c d4 07 bd
       -0.007348065 0.007404605 0.009924038 -0.033161208
000070 dc 37 5c bc c6 3c 92 3c 89 c3 4b 3c 22 36 29 3b
       -0.013441052 0.017851245 0.012436756 0.002581962
000080 0d 4f 61 3c f0 66 03 bb 2f f8 b0 3b a1 6d fb bc
       0.013751757 -0.002005037 0.0054006795 -0.030691924
000090 7a 34 2f 3c 44 a3 72 bd 19 cc d3 3c fb 5b 25 bd
       0.010693664 -0.059237733 0.025854157 -0.040370923
0000a0 bf d7 18 3d bb cc 23 bd e4 74 47 bd fc 78 87 bc
       0.037315127 -0.039990168 -0.04869546 -0.016537182
0000b0 97 23 3d 3d ac fa 86 bc 0e 3a e6 3a b8 95 6d bc
       0.04617652 -0.016476952 0.0017564909 -0.014501028
0000c0 d6 79 c3 3c f3 b1 13 bd 35 3a 33 3c 81 4d c1 bb
       0.023861807 -0.036058377 0.010939171 -0.0058991318
0000d0 c1 78 6e 3d 5e d6 49 bc 1e 21 43 3c f6 f2 53 bc
       0.05822063 -0.0123191755 0.011909751 -0.012936344
0000e0 6f 58 d8 3c 04 77 1e 3c df 97 06 bd ad ce 12 3d
       0.026409356 0.00967193 -0.03285968 0.035841633
0000f0 99 45 1b bd de 4d be 3c 2a d5 71 bc fb d3 ae bc
       -0.03790817 0.02323049 -0.014760295 -0.021341315
000100 5a 76 ad bc f5 d7 d3 bb 11 8b f6 bc e6 d7 72 bc
       -0.021174598 -0.006464953 -0.030095609 -0.014821982
000110 63 db 3d bc b9 60 2e bc e3 28 ea bd ae e6 1f bc
       -0.01158795 -0.010643178 -0.1143358 -0.009759588
000120 14 bf 3b bd db e7 1d 3d ed 7b 9c ba 31 66 1a bd
       -0.045836523 0.038551193 -0.0011938788 -0.037695114
000130 b2 f3 31 3d 85 ce ea bc ee dc 22 3d 11 23 41 3b
       0.043445297 -0.02866293 0.039761476 0.0029470364
000140 e2 56 88 bc 33 e8 e4 3a 3e 65 3a bd d7 46 58 3d
       -0.016642991 0.001746422 -0.04550671 0.052801933
000150 cf 1e a9 3c d3 5d 1d bb cd ba af 3c f9 26 04 3a
       0.020644573 -0.0024012222 0.021451378 0.0005041208
000160 95 50 3e bc 8c b4 7d 3d e3 9d ae bc 3a 1b 26 bc
       -0.011615892 0.06193976 -0.02131552 -0.010138327
000170 23 05 a4 bc 7f 1d 36 bc 7c 6d a1 bd f6 02 a0 3b
       -0.02002198 -0.011115431 -0.078822106 0.0048831655
000180 f9 75 30 3d 66 3c 95 3c b6 ba 20 3c cb b0 5f 3d
       0.043081257 0.018217277 0.00981014 0.054611962
000190 0b 59 95 3c 42 6a 96 3c 1c 52 b1 3c 58 57 cd bc
       0.018230936 0.018361215 0.021645598 -0.025066063
0001a0 41 7d a7 bc fb 65 9f 3b 4b 6d 98 bc f1 5d 50 bd
       -0.020445468 0.004864452 -0.018606802 -0.05087084
0001b0 54 cb 37 3c 6a ef 12 3d 63 dd 21 3d 71 81 f4 3b
       0.011217911 0.035872854 0.03951777 0.0074617197
0001c0 c4 70 ab 3d 2a 4b 69 3d 21 5f 82 3c f3 21 eb 3c
       0.08371118 0.056956448 0.015914502 0.028702712
0001d0 25 1d d5 bb f9 99 30 3b 00 f1 60 bc ee d1 08 bd
       -0.0065037184 0.0026947244 -0.013729334 -0.03340333
0001e0 27 46 15 bd 79 13 82 3d c0 33 14 3d 40 6e 0c bd
       -0.036443856 0.0635137 0.036182165 -0.03428483
0001f0 01 ce 46 3c 79 81 0a bd 65 e8 44 bc 2b 69 0a bd
       0.012134076 -0.03381488 -0.012018298 -0.033791702
000200 d8 01 71 bb e9 b0 61 bc 88 a4 10 3d af b8 12 3c
       -0.003677478 -0.013775089 0.03531316 0.008955165
000210 8c 62 4e 3d 18 67 c8 bc c1 e8 54 3d 13 ce ab bb
       0.05038695 -0.024463221 0.051979784 -0.005243072
000220 65 b8 47 3d d2 2f 49 3c 77 a8 fe bc e3 f6 17 3d
       0.048759837 0.012279468 -0.03108619 0.037100684
000230 27 a0 15 bd 3a 28 a1 bc 9d 5c e5 3b 2e d9 8b 3b
       -0.036529686 -0.019672502 0.0069995658 0.004267833
000240 8b 59 5d bd 25 f7 4a bd 70 c9 0e bd ac 17 08 bd
       -0.054040473 -0.0495521 -0.034860075 -0.0332257
000250 0f d6 32 3a ec 2b 29 bc 67 f2 f3 bc 8d 00 73 bb
       0.00068220583 -0.010325413 -0.029778672 -0.0037079186
000260 37 7a 7b 3e 7c 8d 87 bc eb fc 62 3c a9 c2 1f 3c
       0.2455834 -0.016546957 0.013854246 0.009751
000270 fc 37 5f 3d e4 b0 d8 3b ad b9 a2 bc 0a 7f a9 bc
       0.05449675 0.006612884 -0.019863928 -0.02069046
000280 ea 52 3a bc 6c 84 57 3c f4 1d 85 bc 2f 78 b2 3c
       -0.011372307 0.01315413 -0.016249634 0.021785824
000290 e6 b9 6d 3c f5 69 00 3c dc 4d 81 bd e7 71 62 3d
       0.014509654 0.007837762 -0.063136786 0.055284407
0002a0 86 57 c8 bc 46 f1 ac bc 48 ae 85 3a 68 39 48 bd
       -0.024455797 -0.021111142 0.0010199035 -0.048882872
0002b0 eb 04 00 bd 80 45 2e 3d d1 3d e2 bc 56 9e 8d 3d
       -0.03125469 0.04254675 -0.027617367 0.06914966
0002c0 e2 17 33 bc 9a ae 04 bc 79 95 11 3c e4 11 1e 3d
       -0.010930987 -0.008098269 0.008885735 0.03859128
0002d0 13 03 43 bc 89 09 3d 3c d8 ef 00 bd 79 d0 75 3c
       -0.011902588 0.011537918 -0.031478733 0.015003317
0002e0 09 bd 92 bc cc 0c 0d 3d e2 8c c8 bc 48 87 12 bd
       -0.017912405 0.034436032 -0.02448124 -0.035773546
0002f0 bc 09 9f 3c e2 70 df 3b f3 26 15 3d 36 a8 aa bc
       0.019413821 0.0068188766 0.036414098 -0.020832162
000300 36 91 65 bc 36 71 48 bd e0 d8 98 37 db 45 b3 bb
       -0.014011672 -0.04893609 1.8220802e-05 -0.005470974
000310 91 f7 5a bb 92 53 34 3d bb fe 25 bc 94 16 ba bc
       -0.0033411721 0.04402501 -0.010131533 -0.022715844
000320 2d cb 61 bd c8 b2 84 bc 00 d3 7b bd c5 1f 11 3d
       -0.055125404 -0.01619853 -0.061480522 0.03543069
000330 7d 46 3d 3c d8 28 a4 3b 7c 34 18 bd 9e 9d 07 bd
       0.01155245 0.0050097518 -0.037159428 -0.0331093
000340 fa 3a f6 3b 1d ac a0 ba d5 61 9e bc f2 99 80 3b
       0.007514355 -0.0012258325 -0.01933376 0.0039246017
000350 99 3d 23 bc 3a 20 8e bd d6 6e a9 bd 46 98 36 3d
       -0.0099634165 -0.069397405 -0.082730934 0.044578813
000360 78 da 5f bd 5c b4 8f bd 7c fd f1 bb 45 33 fd 3c
       -0.054651707 -0.07016823 -0.007384954 0.030908236
000370 e0 8d ac 3c 8f b2 1d bd a6 3f 12 bb f8 00 56 bb
       0.021063745 -0.038500365 -0.002231577 -0.0032654386
000380 83 e4 89 3c b7 7e 8c 3c 03 a3 a3 bc 27 e5 fb 3c
       0.016832596 0.017150266 -0.019975191 0.030748917
000390 2d 9b c9 ba 95 72 a2 3b 79 e5 77 3c b6 36 a6 3c
       -0.0015381329 0.004957507 0.015130394 0.02028976
0003a0 2f 02 0a bc a2 85 24 3d 4f e8 69 3d e8 28 71 3c
       -0.008423372 0.040166505 0.057106312 0.0147192255
0003b0 df 84 82 bc c1 d2 21 bd 13 40 b8 bc aa ac fe bc
       -0.015932498 -0.03950763 -0.02249149 -0.031088192
0003c0 4d db c0 3d 6d f2 43 be 75 38 9c bb e9 79 bb 3b
       0.09416828 -0.19135447 -0.0047674724 0.00572132
0003d0 95 dc b0 bc 18 9c 3d 3b 39 6c 04 bd 95 8f 09 3d
       -0.021589557 0.002893215 -0.03232977 0.033584196
0003e0 65 19 5e bd b0 0a 45 bd 3c 3c d4 bc a6 96 ab 3c
       -0.054223437 -0.048105896 -0.025907628 0.020945858
0003f0 93 24 1c bd 8e 3b ea bd 2f ce f7 bc 74 07 68 3c
       -0.038120817 -0.114371404 -0.030249683 0.014161933
