.taste_cache/emb/b608803408b3ff8ce263983e22668d59.npy (npy, 2176 bytes, 1 tensors)

array f4 [512]
00000000: 9cf7 36bc fe30 bdbc cbcb 60bd b607 523c
00000010: 39c2 12bd 9be6 503d a547 7d3d 331c 293c
00000020: 884c 483b 6a6f 063d 8a5c 903c 9196 50bc
00000030: da1b 0f3d 45a7 903d 1bde 893c b355 a1bb
00000040: b1c8 e53c 9d94 b439 dd05 f53b 586b dabc
00000050: 7299 08bd 60eb 353d ba65 833c 97b3 d2bc
00000060: 1fe5 843c 0d2b 45bb d50e 2d3d b65c 35bd
00000070: 922a 0bbc 4667 d43c 2efb e83c dc91 853c
00000080: 4afa a43c 9877 04bc 4a66 1d3c 4561 e83c
00000090: 7ad3 2c3d 53bd 2ebd d42a 1e3c 89b6 97bd
000000a0: 86f1 873b fe52 c2bc fef1 35bd e392 e7bc
000000b0: 67e9 113d 8ed8 66bc 16a8 8a3b 8a11 da3c
000000c0: 4566 0d3c ee7e 2dbc 6d1f f03c 5b98 dbbc
000000d0: 30a0 5b3d 5c4c e93c df78 d2bc 9c31 f43b
000000e0: 0eab aa3c 289a a23c e49a 75bd 2507 643d
000000f0: 7801 d0bc 7028 b73a 29c3 87b9 504d 8dbb
00000100: 6407 b0bc 7744 be3c bcc9 94bc aecc 53bd
00000110: 751a 8bbc 3999 953c 0958 e7bd d3c5 dcbc
00000120: 68d4 3bbd be01 3a3d 0cf1 18bd 3b1c 68bd
00000130: 8241 c6bb 378d bfbc f662 813d 91d5 cf3b
00000140: f78e 49bc 262a 993c 4864 50bc 39c6 b43c
00000150: fdec 1abc 505f 5fbc 9b11 163d 5e3f 05bd
00000160: bdec 06bb eeb1 8f3c 5a70 02bc aca7 d1bc
00000170: d29e 0bbc 3006 d2bc 0f16 55bd 80e6 a43b
00000180: 8566 bb3d 836b 3c3c 0bb8 b33b 2dc4 ba3d
00000190: 7c8d 71bb e5e0 053c 2897 a1bc ae90 683c
000001a0: b057 d2bc 2974 973c 9a9b 0bbc 5b4f 62bd
000001b0: e7a6 d9bb ef0d 123d f391 8cbb 7458 15bc
000001c0: 33d6 813d 7ef4 a33c e80a 4bbc bbfd 0f3b
000001d0: a6ee 17bc 412e 02bd e53e 4fbb 6513 71bb
000001e0: 7f70 37bd 2efd 1d3d 6441 463d 9a0e 5abd
000001f0: ffeb 233d ec3d 35bd eb3e ecbc 7326 08bc
00000200: 0bb5 20bd 5331 273b c6a2 7c3d 3ace e7bc
00000210: 184e bd3c 02bc 09bc b2b5 383d 07be f8bb
00000220: 4a6b 023d 564b e13c 672c 40bc c2bb dd3c
00000230: 9b0f 2bbc 977c cabc 472c b13c 2b8b a0bc
00000240: e7e9 4cbc 19a3 6abc 32e5 97bd 5c83 73bd
00000250: 4a20 803c 08d6 493d be2e 42bc cd8d c2bc
00000260: 6118 883e a1dc 4f3c 5d39 933c e5a0 453d
00000270: 5bfe 763d 0ac6 a33b ea65 26bd ed4a 43bc
00000280: 0498 ce3c efbc f2bb bf68 68bd 1f7d 673d
00000290: 3f5a c03b 9071 4b3b 5aff 7fbd b6c2 763c
000002a0: 82c0 9fbc 8cff 633c 0717 45bc 56ee 94bc
000002b0: 71fa f8bb 9ae3 7e3d 0313 67bc 48ac 9b3d
000002c0: 49df fbbc aede 163c 4295 d93d be03 623b
000002d0: e81b a9bc 9646 2dbb 34f3 9fbc 3bc1 f03b
000002e0: c82e 8cbd fedb 93b9 d581 0dbc 0dcc 10bd
000002f0: fafd 283c f466 98bb 1549 933c 1251 61bc
00000300: bfd1 98bc 248c 07bd d8ae 27bc c823 3c3c
00000310: b588 273c 4a0d 703d dd59 143c 4cec e3bc
00000320: f83f c5bc c23b efbb 18e2 b2bb 2bb9 6d3c
00000330: d098 bd3c 4065 573b a765 d9bc 82fc adbc
00000340: b93a 0d3d af9e 21bd 1cd7 8d3b df07 443a
00000350: df08 8dbc 8f5f 33bd 076c f3bc 2294 ad39
00000360: b5ec 2cbd 0160 e7bc 6a6c c63c 5172 763d
00000370: e0d0 393d a40a 51bd 9b7e 073b 08af d93c
00000380: 4965 2a3d 923f 92bb 1c2c f3bc a20c 94bc
00000390: afc9 273c f1ec eaba bc16 a53c eae8 f23b
000003a0: e2d7 553a 0731 273c 09e1 7b3d ec6a 53bc
000003b0: 3327 ce3c a81a 86bd 0e0d 04bd 58a8 22bd
000003c0: b5c4 2b3d dad7 37be d0ac 62bb 4b89 02bc
000003d0: 5b2d 013a f3b5 31bc 166f b9bc 81d4 a8ba
000003e0: 7e99 68bd 662f 52bc 0a0d bcbd c27e 2c3d
000003f0: fe21 01bd a760 e7bd 0ea7 89bc 4b77 6d3c
-0.011167433 -0.02309465 -0.054881852 0.012819221 -0.035829756 0.051001173 0.061835904 0.010321665
0.0030563194 0.032821096 0.017622251 -0.01273121 0.03493867 0.07063154 0.016829541 -0.004923546
0.028049799 0.00034443 0.0074775056 -0.026662514 -0.03334946 0.044413924 0.016039718 -0.0257204
0.016222535 -0.0030085475 0.042250473 -0.04427787 -0.008494036 0.02592815 0.028440084 0.016304903
0.020138878 -0.008085154 0.009606907 0.028366694 0.042193867 -0.042661022 0.009653766 -0.07407863
0.004148665 -0.023721214 -0.044420235 -0.028268283 0.03562298 -0.014089717 0.004231463 0.026619691
0.00863034 -0.010589344 0.02931186 -0.026806047 0.053619564 0.028478794 -0.025692401 0.007452203
0.020833518 0.019848898 -0.05996217 0.055670876 -0.025391325 0.0013973843 -0.00025894612 -0.004312195
-0.0214879 0.023226006 -0.0181626 -0.05170887 -0.01698039 0.018261539 -0.11296088 -0.026949799
-0.045856863 0.045411818 -0.037339255 -0.056667548 -0.0060502896 -0.023382766 0.063177034 0.006342598
-0.012302152 0.018696856 -0.012719221 0.022067176 -0.0094559165 -0.013633564 0.036637884 -0.032531135
-0.0020587884 0.017540898 -0.007961357 -0.025592647 -0.008521752 -0.025637716 -0.05202299 0.0050323606
0.091504134 0.011500242 0.005484586 0.09119449 -0.0036858013 0.008171295 -0.019725397 0.014194651
-0.025676578 0.018488007 -0.008520985 -0.05525146 -0.0066422108 0.03565782 -0.0042898594 -0.009115327
0.063396834 0.020014044 -0.012392737 0.0021971304 -0.009273207 -0.031782392 -0.0031623181 -0.0036785242
-0.04478502 0.03857153 0.048402205 -0.05323658 0.040019985 -0.044248506 -0.028838595 -0.008309948
-0.039235156 0.0025511577 0.06167867 -0.028296579 0.023108527 -0.008406641 0.045095153 -0.0075910124
0.0318406 0.027501743 -0.011729336 0.027067069 -0.010440732 -0.024717612 0.021627558 -0.01959761
-0.012506939 -0.014321112 -0.074167624 -0.059451446 0.015640397 0.04927638 -0.0118519645 -0.023749257
0.265811 0.012686879 0.017971689 0.048249144 0.060301166 0.0049979733 -0.040624537 -0.011919719
0.025218971 -0.0074077765 -0.05674052 0.05651581 0.005870133 0.003104303 -0.06249938 0.015061071
-0.019500975 0.013915908 -0.012029416 -0.018180054 -0.0075982143 0.062228777 -0.014103654 0.076012194
-0.03074612 0.009208364 0.10624172 0.0034487094 -0.02064319 -0.0026439778 -0.019525148 0.0073472536
-0.0684486 -0.00028201932 -0.008636911 -0.035350848 0.010314459 -0.004650945 0.017979184 -0.013752239
-0.018654702 -0.033092633 -0.010234557 0.01148314 0.010225465 0.058606423 0.009054628 -0.027822636
-0.024078354 -0.007300825 -0.0054590814 0.0145094795 0.023144156 0.0032866746 -0.02653773 -0.02123857
0.03447983 -0.039457973 0.0043286216 0.00074779795 -0.017216144 -0.043792304 -0.029714597 0.000331075
-0.04221793 -0.02824402 0.024221618 0.060167614 0.045365214 -0.05103554 0.0020674828 0.02657272
0.0416005 -0.0044631446 -0.029684119 -0.01807243 0.010240956 -0.0017923397 0.020152442 0.0074130194
0.0008157474 0.01020456 0.061493907 -0.01290391 0.025165176 -0.06548053 -0.032239012 -0.039711326
0.04193564 -0.17953435 -0.0034587868 -0.0079673035 0.0004927718 -0.010846603 -0.022635978 -0.0012880714
-0.056787007 -0.0128286835 -0.091821745 0.042113073 -0.031526558 -0.11297732 -0.01680329 0.014493774
