.taste_cache/emb/b6956ddfa266647100e0a8bb8e732e37.npy (npy, 2176 bytes, 1 tensors)

array f4 [512]
00000000: 6eef a1bc b08e 04bd d500 8fbd b564 9bbb
00000010: 305c cebc 25fb 653d 9630 853d 1dd4 d0ba
00000020: 6126 233d 6341 743d 3266 173d 44dc 1dbd
00000030: a4f5 06bb 2dba 133d 63ca dc3c 3c18 4e3c
00000040: 1e46 823d b9a2 08bc 76ad 293c 279d 01bd
00000050: 8fc6 9bbc 4f45 1a3d e2ab 0a3d d48a 63bc
00000060: 7e90 4abc 1a00 323d c9b8 2b3d e538 86bd
00000070: fe09 4bbc 18d7 1d3c d708 bc3c a5eb 1a3d
00000080: b849 e93c f0b6 223d c63f fa3b a165 263d
00000090: ed5b e63c 5675 c1bb 1664 9d3b 134e bebd
000000a0: af01 9aba e1cb 1cbd e2d3 cdbc e6b4 30bd
000000b0: c51b 1a3d 6b0d b3bc 97ba 983c dca8 1b3d
000000c0: eea9 f3bb e8fa 23bc 5d51 313d 45d0 52bd
000000d0: 607d 653d 2869 ca3c 63d6 6bbc 4656 05bc
000000e0: f54c a33c cb8c 8fbc de41 82bd 75df 523d
000000f0: eaaf 77bc 3290 aabc 30d0 46bb 57e1 07bd
00000100: 5ba8 cabb 1555 7d3c 7c2f 33bd b365 1c3a
00000110: 9373 d4bc db08 4e3a 297c d2bd 0f61 bfbc
00000120: 4590 26bd 6a57 523c e3c9 d5bb 5143 4fbd
00000130: 1d7c 9d3a ca5c 35bd 4972 f53c 6c3f 043d
00000140: 8a8e 5abc 00c6 f83c 1ed6 80bc 1711 203d
00000150: e1b7 7aba b01e 71bc 264c 543d 3989 b7bc
00000160: de89 4dbc 83f3 ab3c 7c64 a7bb 1754 9c3b
00000170: e5e5 d9bc e86e 8dbc ea1f 4bbd a069 223c
00000180: 8721 e03c bad6 5a3b 4ec1 dd3b dd64 6c3d
00000190: 5194 29bb 515a 083a 5d64 93bc 6b83 e03c
000001a0: f13d d2bb c430 b13c d72a 2b3b 3e13 9cbc
000001b0: cee8 50bc 3205 b6bb 231e e6bc f865 efbc
000001c0: 59ab 743d f5f1 e33c 37b5 5dbc 5513 f93b
000001d0: 432f b8b8 ec70 03bd a310 5dbc 3691 d2bb
000001e0: ca84 fcbb 399f 2b3d 85a6 043d 9f5b 2fbd
000001f0: 6648 fc3c 5bfe 71bd 6f58 f0bc e44c 0fbd
00000200: 7c1f 15bd 5496 e1bc 2009 863d 55de 45bd
00000210: f54f 223d a101 fc3a 4499 4b3d 7c8c 0bbd
00000220: 5bed 2d3d f88e 583d 33c7 1dbd 724c 743c
00000230: ed34 9a3c 51bb a4bc 3767 123d a0f6 2fbd
00000240: 75ae bebc 7985 12bb 6a82 57bd 386a 8ebd
00000250: fb64 a83c 870c 5e3d e63c 01bd ab0a fbbc
00000260: 0319 9f3e d3f4 483b 1e54 4d3c 0c23 573d
00000270: 4719 833d 7dc8 c13c e108 fbbc f3ed 1bbc
00000280: 1aba 1e3c 80cf d1bc 7fc8 54bd b1b7 883c
00000290: a364 13bc 8c73 053d e472 9cbd c380 253d
000002a0: 83ee cd3b 851b d33c f83b 98bc 67e1 62bc
000002b0: d0a3 163d 2ff4 a03d dcf0 5b3c 352a 8d3d
000002c0: 4ca6 2ebd 7710 883b 8f1f b13d bb8b 2f3a
000002d0: 4e81 2fbd a2f6 4f3b f7bd 00bd e101 9c3c
000002e0: af11 82bd f57c bf3b 1520 f03c 1978 08bd
000002f0: e4aa 073d f53e ccbc bdef 333d 74d9 1dbd
00000300: b973 d5bc 8ef3 09bc 9a5d 3a3c 814c 0a3d
00000310: 61f2 db3c e584 053d 9dc4 fbbc 070f 5b3a
00000320: f525 8e39 1e8d ad3c 3c24 133d f3fa 0f3c
00000330: 9847 b93c 435c 4c3c 953c b8bc ba8a 1fbd
00000340: 4322 6e3c 5616 e3bc 4241 e3bb 84fb ea3b
00000350: c97f 36bc 5515 28bd dcb7 a1bc 700e cc3c
00000360: fe2d 62bc c107 41bc 65ae c43c 22f4 2d3d
00000370: 27c5 963d 5589 38bd 076a 833b 2d77 a03c
00000380: 0c2a 1b3d 256d 0bbd 0f09 eabc 6f03 1abd
00000390: c3d2 b43c 42f0 013d 76ba aabc f400 a23c
000003a0: f558 793b 49fc 3b3c a3aa 7c3d 8ecb 07bc
000003b0: 6b46 ce3c bd98 2cbd 7f2d 7dbc 5b93 39bd
000003c0: 3e9d 973d b3b5 3abe 77f6 833c 30bc 393c
000003d0: f451 f2ba b350 843c c6cc fbbc 605f 1c3d
000003e0: 6c2f 93bd 3978 c5bc 9101 c8bd d815 8d3c
000003f0: c95e 99bc 6495 d2bd cc0a 4db9 b58d 563c
-0.01976749 -0.03236264 -0.069825806 -0.00474223 -0.025190443 0.056147713 0.06503408 -0.0015932355
0.039831523 0.05963267 0.036962695 -0.03854014 -0.002059319 0.036066223 0.026951974 0.01257902
0.0636103 -0.008339577 0.010356298 -0.031644013 -0.019015579 0.037663754 0.033855326 -0.01388808
-0.012363551 0.043457128 0.04192427 -0.065538205 -0.012392519 0.009633802 0.022953434 0.037822384
0.028477535 0.039725244 0.007636997 0.040624265 0.028120006 -0.00590388 0.004803191 -0.09292235
-0.0011749769 -0.03828037 -0.025125448 -0.04314127 0.03762414 -0.021856984 0.01864366 0.038002834
-0.0074360287 -0.010008551 0.043290485 -0.051468153 0.05602777 0.024708346 -0.0143943755 -0.008138245
0.019934157 -0.01752319 -0.063602194 0.051482636 -0.015117625 -0.02082071 -0.0030336492 -0.033173885
-0.0061846203 0.01546218 -0.043746457 0.0005966082 -0.025934016 0.0007859596 -0.10277588 -0.02336171
-0.04066493 0.012838224 -0.006524311 -0.050601307 0.0012015138 -0.044277944 0.029961722 0.032287046
-0.013339648 0.030367851 -0.015727099 0.0390788 -0.0009564143 -0.014716789 0.051830433 -0.0224043
-0.012545077 0.020990139 -0.005108414 0.0047707665 -0.02659888 -0.017264798 -0.049590982 0.009912878
0.027359737 0.0033392147 0.0067674285 0.05771338 -0.0025875757 0.00052014465 -0.017992193 0.027406415
-0.0064160754 0.021629699 0.0026118064 -0.019052144 -0.012750817 -0.0055548185 -0.028090542 -0.029223427
0.059733722 0.027825335 -0.0135319745 0.0076011815 -8.782607e-05 -0.032090113 -0.013492736 -0.006426002
-0.0077062594 0.041899893 0.032385368 -0.042811986 0.030796241 -0.059080463 -0.029339043 -0.034985438
-0.03640698 -0.027537502 0.06544709 -0.048307735 0.039627034 0.001922656 0.049706712 -0.034069523
0.042462688 0.05287072 -0.03852005 0.014910804 0.018824065 -0.02010885 0.035742965 -0.04295981
-0.023276547 -0.0022357388 -0.052614607 -0.06953853 0.020555964 0.054211166 -0.031552218 -0.030644735
0.3107377 0.0030663505 0.012532262 0.052523658 0.06401306 0.02365517 -0.030643882 -0.009517181
0.009687925 -0.025611639 -0.05194902 0.016689153 -0.008996162 0.032580897 -0.07639101 0.040406
0.0062845363 0.025769958 -0.018583283 -0.013847685 0.036777318 0.07859074 0.013424125 0.06892816
-0.04263906 0.0041523534 0.086485974 0.00066965417 -0.042847924 0.0031732698 -0.031431165 0.019043865
-0.06351029 0.0058437535 0.029312173 -0.03331766 0.03312196 -0.024932364 0.043929804 -0.038537458
-0.026056157 -0.008419884 0.011374855 0.033764366 0.026848974 0.03259744 -0.030733401 0.0008356426
0.0002711263 0.021185454 0.035923228 0.008787858 0.022617146 0.012473169 -0.022489825 -0.03895066
0.014534536 -0.027720612 -0.0069352696 0.0071710963 -0.011138865 -0.04103597 -0.019740991 0.024909228
-0.013804911 -0.011781634 0.024008939 0.04246915 0.073618226 -0.045052845 0.004010442 0.019588077
0.037881896 -0.034039635 -0.028568773 -0.03760093 0.022073155 0.03172327 -0.020840865 0.019775845
0.0038047407 0.011473724 0.06168617 -0.008288277 0.025180062 -0.04213785 -0.015452742 -0.045306545
0.074030384 -0.18233375 0.016108735 0.011336371 -0.0018487559 0.016151762 -0.030737292 0.038176894
-0.071867794 -0.024105178 -0.09765924 0.01722233 -0.018721955 -0.102824 -0.00019554346 0.013095309
