.taste_cache/emb/b8625fb2b7ff4c2e7ec648a446a39f60.npy (npy, 2176 bytes, 1 tensors)

array f4 [512]
00000000: f373 45bd fb8d f5bc 9f77 82bd 0072 9ebc
00000010: cec5 16bd 30c0 863d c77e ce3d 4797 1c3c
00000020: 0c83 493d 3283 843d 8e99 053d 816d 4b3c
00000030: 0da8 f63b 5617 293d c6af 423c 6785 8cbc
00000040: ef10 f33c c900 96bb 6d7e 023d 434c 22bd
00000050: a402 95bd 009a 083d 1b05 9e3c 3191 1bbc
00000060: 72be bc3c 0005 ab3c 8eb5 143d d7fd 31bd
00000070: 9434 99bb a65b d83c 9716 533c 7e4b 9f3c
00000080: efcf b53a 2344 153c 38ed 073d d145 84ba
00000090: 2da7 273d b342 5dbc d4e4 853c b971 bbbd
000000a0: dccb 94bb fd58 15bd 9a9c 84bc 3e9a b8bc
000000b0: 2d2b 553d d66c 68bc 471f cb3c 6488 f13c
000000c0: 9502 a43c affd 54bc abbd 283d ba1d 84bc
000000d0: b6cb 043d 365f 40bc a18d abbc 92e6 30bc
000000e0: e9d1 d83c 22de f43c 74d0 2bbd ebd5 8c3d
000000f0: e33b d7bc 4760 a4ba b62b 023b 28c1 03bd
00000100: d5f6 953a 16c1 03bb 5e5e 0bbd af4e afbc
00000110: 50b0 15bd 9e55 973b 63c8 e8bd e743 5cbc
00000120: dcff 14bd 398d bb3c f48d 07bd da8f aebd
00000130: e085 f73c 3ed3 12bd 2d27 ba3c a976 c53c
00000140: 9aa4 d7bb 72db 003d d361 d4bb 8730 173d
00000150: 45ea 843c 83fc 813b 690e 453d 0f4d 32bc
00000160: 573d c0bc 9ef0 403c e6c6 31bc f55f 31bd
00000170: feaf d3bc 81f5 64bb 9cc2 80bd 5ba9 38bc
00000180: 8e16 223d 73e7 303c 22a4 423c 47e2 993d
00000190: a7ca 02bd 391e 163c 4fac 60bc 2dd7 4abc
000001a0: 760b 20bd 6bb9 e039 fbed 1a3b 0455 5abc
000001b0: fb5b 533c 4249 ed3c 9f1e 5b3c 4a90 97bc
000001c0: 5e77 923d 4b9d 3a3d 2041 a1bc 7c33 ba3c
000001d0: 4f32 e9bc 9c2e 2bbc 9f10 edbc b46e cbbb
000001e0: 49d0 35bd 10e3 693d f31e 633c a173 08bd
000001f0: 1de1 013d 9841 6abd 285e bdbc 3d18 d8bc
00000200: d3d8 893c 7544 4cbb a01b 163d 3826 f1bc
00000210: f7cc 033d 22be f83b f9de 2e3d fb5b 7a3a
00000220: d42e 5d3d 8e8b c93c 8ef7 50bd 505a 2d3d
00000230: a227 8dbc 3eaa 2abc d711 6d3c b5ed 99bc
00000240: dd4c d03b afad a0bc 7a8e 77bd 9a38 88bd
00000250: ad9f 6cbb 51c1 da3c 325c 8fbc 49dc c7bc
00000260: bf29 823e 7dd6 433c 811b c53c a422 153d
00000270: 16ad 5d3d 8ba3 5d3a 91ff fcbc 09c2 8f3a
00000280: a8c2 b43c 2c45 773c 7f4b 4dbd 4fb2 383c
00000290: 1ec3 e93b bb29 cb3c 5a88 8abd 23ff 443d
000002a0: 2305 04bc 03a7 8eba b006 25bc e93e 64bc
000002b0: 8515 0d3b 5cd4 793d d565 a9bb 44fd 513d
000002c0: 4426 7dbd 7719 cf3c d142 1f3e 6db2 383c
000002d0: b019 1bbd c065 c73c f9c0 1dbd 4661 a63c
000002e0: af24 20bd b097 7fbc d0d0 5b3a 5673 0ebd
000002f0: 5c3b b33c c1b4 b4bc 159f 203d fa6d a1bd
00000300: 918d f0bc 0b98 11bc 4fad e93c f580 b53c
00000310: 699b d0ba 3a1a 663d 4654 aa3b 3aea 18bd
00000320: 8d2d 7d39 989d 2bbd 3435 32bb b4d1 e83c
00000330: ddea cc3c be5a 063c a9d8 10bd 15f3 babc
00000340: 4012 983c c3cd 92bc f797 6c3c f016 d43c
00000350: c26b cbbc e22e 74bd f0a7 23bd 7b5f cb3c
00000360: 8782 d4bc b0c7 42bd 9c94 48bc 5959 4e3d
00000370: 11dc 813d 5709 f4bc 42d2 b8bb e168 ddbb
00000380: 61d3 8f3c 9560 acbc f779 f6bc 806e 6bbc
00000390: 96db 22bb 01ee 89bc afa2 cbba 52d6 f23b
000003a0: cffb 97bc f71e 2d3c 8610 913d fef3 d3bc
000003b0: 77a2 6d3b d203 83bd a527 76bc 6787 7ebd
000003c0: 31ea 973d 0fa9 43be b8f6 49bc 2dc9 df3c
000003d0: 95dd 48bc 4911 1dbc b9d8 63bd f4ac 163d
000003e0: 17aa 88bd 5e9c 0cbc 0166 8cbd 379e 303d
000003f0: 8775 71bc 5de1 e8bd fdd7 8bbc 9aaa 8f3c
-0.04820628 -0.029974928 -0.06370472 -0.019341469 -0.036809735 0.065796256 0.100827746 0.009557552
0.04919724 0.06470336 0.032617144 0.0124162445 0.0075273574 0.04128202 0.011882728 -0.017153455
0.02967116 -0.0045777303 0.03185885 -0.03962351 -0.07275894 0.03334999 0.019289544 -0.009495066
0.02304003 0.020876408 0.036305957 -0.04345497 -0.0046754573 0.026410889 0.012883804 0.019445177
0.0013871173 0.009110483 0.033185214 -0.0010091608 0.040930916 -0.013504672 0.016344465 -0.0915255
-0.0045409035 -0.03646182 -0.016187955 -0.022534486 0.05204313 -0.014186105 0.024795188 0.029483981
0.020020762 -0.012999936 0.041196506 -0.016127456 0.032420836 -0.01174145 -0.020941557 -0.01079716
0.02646728 0.029891077 -0.041946843 0.06876739 -0.026273673 -0.00125409 0.001986248 -0.03216663
0.001144136 -0.0020104102 -0.034025542 -0.021399824 -0.036545098 0.0046183607 -0.11366346 -0.013443924
-0.03637682 0.022894489 -0.03309436 -0.08523531 0.030215204 -0.035845987 0.022723759 0.024104433
-0.0065809013 0.03145928 -0.006481388 0.036911514 0.01622499 0.0039668693 0.048109446 -0.01088263
-0.02346675 0.011776118 -0.010850644 -0.043304402 -0.025840756 -0.003493637 -0.06287119 -0.011270846
0.03957229 0.010797369 0.011879953 0.07513862 -0.031931546 0.009162479 -0.013712957 -0.0123804035
-0.03907343 0.00042862757 0.0023640383 -0.013325933 0.012900348 0.028965596 0.013374 -0.01850142
0.07151674 0.045560163 -0.019684374 0.022729628 -0.028466372 -0.010448124 -0.02893859 -0.006208265
-0.04438809 0.05710131 0.013862359 -0.033313397 0.031708825 -0.05719146 -0.023116186 -0.026378745
0.016827023 -0.0031168733 0.03664744 -0.02943717 0.03217789 0.007591025 0.042693112 0.00095504493
0.053999737 0.024602678 -0.051017337 0.042322457 -0.017230812 -0.010416565 0.014469585 -0.018790105
0.006356819 -0.019614069 -0.06043861 -0.06651421 -0.0036105916 0.026703509 -0.017500017 -0.024397032
0.25422475 0.011952993 0.024060966 0.03640999 0.054120146 0.0008454851 -0.030883582 0.0010967861
0.022065476 0.015092175 -0.050120827 0.011272981 0.0071338555 0.024800172 -0.06764288 0.04809488
-0.008057865 -0.0010883514 -0.010072395 -0.013931015 0.002152772 0.060993537 -0.00516961 0.051266924
-0.06180407 0.025280697 0.15552832 0.011273009 -0.037866294 0.02434051 -0.03851411 0.020310055
-0.039097484 -0.01560013 0.00083853025 -0.03477796 0.02187889 -0.022058846 0.039214212 -0.078823045
-0.02936438 -0.0088863475 0.028525023 0.022156218 -0.0015915456 0.056177355 0.0051980345 -0.03733275
0.00024144929 -0.04189834 -0.0027192356 0.028420307 0.025014335 0.008200346 -0.035362873 -0.022820989
0.01856339 -0.01792038 0.014440528 0.025889844 -0.024831656 -0.059615023 -0.03995508 0.024825802
-0.025941147 -0.047553718 -0.0122424625 0.050378177 0.063408025 -0.02978961 -0.005640299 -0.0067568873
0.017556848 -0.021042148 -0.030087454 -0.014369607 -0.0024850122 -0.016837122 -0.0015536154 0.007410803
-0.018552689 0.010566465 0.0708323 -0.02587318 0.0036260167 -0.06397213 -0.0150241 -0.06214085
0.07417715 -0.1910746 -0.012326889 0.027317608 -0.0122598605 -0.009586641 -0.055626605 0.036786035
-0.06673067 -0.008582203 -0.06855393 0.043119635 -0.014737493 -0.1137111 -0.017070765 0.017537404
