.taste_cache/emb/b89cbb4a87e0b1addca9a9c29bc4583f.npy (npy, 2176 bytes, 1 tensors)

array f4 [512]
-0.004486146 -0.07799908 -0.03629311 -0.008211888 -0.013733272 0.022647873 0.05229627 -0.007411126
0.030447148 -0.0024184603 0.02928476 -0.01718286 -0.0148689635 0.05058125 0.02631466 0.0072638523
0.033455476 -0.026118686 0.006827769 -0.028118206 -0.050132662 0.037389956 0.023332447 -0.010909142
-0.0036495521 0.03058827 0.042251304 -0.04801761 -0.0072741 0.0022868805 0.030087871 0.022087056
0.011394046 0.044527676 0.0027224626 0.038334455 0.04076769 0.019189315 0.007233094 -0.10526566
0.0057625244 -0.012339786 -0.010808213 -0.026496338 0.04710855 -0.031826816 -0.0044943443 0.01985246
-0.0019024513 -0.016982656 0.055711634 -0.024903147 0.06484668 0.010411593 -0.032948013 -0.0044897725
0.0038382146 0.013320264 -0.058286518 0.059419274 -0.008882014 -0.011319323 -0.008198484 -0.036664296
-0.036765493 0.016254822 -0.038343757 -0.00041233157 -0.03805603 -0.007523617 -0.11274415 0.009333097
-0.038216263 0.017450316 -0.014674985 -0.066828206 0.033761904 -0.056493323 0.05899849 0.04936115
0.0005583533 0.040185805 -0.0043752617 0.017176833 0.014141107 -0.012112578 0.06487988 -0.023871463
0.007480482 -0.0008086034 0.01189954 -0.0066086147 -0.011519673 -0.019172205 -0.052745976 -0.007276578
0.058549654 0.03400632 0.012768762 0.056986723 0.020306911 -0.002855799 -0.023883829 0.0259862
0.006285252 3.7995622e-05 -0.0007229179 -0.09172498 -0.003071025 0.014732274 0.022226842 -0.030034987
0.06806783 0.041631643 -0.026516825 -0.004497903 0.019548962 -0.03525093 -0.03273339 0.035127614
-0.024447223 0.014677858 0.018958066 -0.058946878 0.025702242 -0.028931195 -0.017673714 0.011069012
-0.040227085 -0.015168546 0.025792828 -0.044233445 0.04509898 0.013336602 0.03677191 -0.0010702559
0.036004815 0.03122225 -0.00924512 0.027241884 -0.015103069 -0.0035701054 0.014329919 -0.026462885
-0.046569444 -0.009671177 -0.08530466 -0.0603491 0.02677133 0.0718121 -0.025518099 -0.036118675
0.2809866 -0.013109409 0.011642361 0.045633286 0.04450672 0.0033858817 -0.011516572 -0.00630657
0.031750783 -0.0020798417 -0.05516733 -0.021607852 0.00012805067 0.018530667 -0.05757733 0.03424493
-0.014513524 0.034875523 -0.009825346 0.00045464333 0.02722457 0.06725154 -0.024763051 0.069686234
-0.041556668 -0.009008966 0.098794706 -0.0012234274 -0.030031456 -0.0034073454 -0.028709227 -0.007002526
-0.05547628 -0.01975105 0.014182434 -0.017810872 0.021135861 -0.039369054 0.018503353 -0.0536102
-0.023880001 -0.024834462 -0.020760827 0.022727884 0.01143524 0.06528901 -0.03914644 -0.012547349
-0.007433265 -0.0017423755 0.008462953 0.024684737 0.02536234 0.018000713 -0.042338155 -0.040901083
0.015632626 -0.03194246 -0.003517 0.023495313 0.00012737465 -0.055805583 -0.013583673 0.008533132
-0.013780863 -0.006165253 0.019439405 0.014474176 0.0613209 -0.049089093 -0.0017797563 0.026382176
0.029055752 -0.014009265 -0.028239332 -0.04278415 0.019547613 0.0032419309 0.0076868474 0.017941726
0.009262294 0.03238308 0.044625454 -0.0140325725 0.008184411 -0.045054223 -0.007173652 -0.03179097
0.07417272 -0.20454654 0.015127371 -0.008540277 0.017029347 -0.0061591724 -0.03957415 0.0075655174
-0.07396514 -0.022747496 -0.0604658 0.069746785 -0.02874559 -0.11278564 -0.003029736 0.015793363
00000000: 8500 93bb fbbd 9fbd 16a8 14bd 288b 06bc
00000010: 8501 61bc 0888 b93c 9d34 563d 08d9 f2bb
00000020: 4c6c f93c 087f 1ebb 98e6 ef3c 12c3 8cbc
00000030: f49c 73bc 492e 4f3d d891 d73c 9c05 ee3b
00000040: 9c08 093d dbf6 d5bc 7abb df3b 2758 e6bc
00000050: e857 4dbd 3626 193d b023 bf3c 42bc 32bc
00000060: 532d 6fbb 4094 fa3c b40f 2d3d 1dae 44bd
00000070: 935b eebb 7ddf 153b d77a f63c eaef b43c
00000080: 18ae 3a3c a762 363d 586b 323b 9704 1d3d
00000090: 05fc 263d e932 9d3c 9703 ed3b 8695 d7bd
000000a0: 8fd3 bc3b d02c 4abc ee14 31bc d90e d9bc
000000b0: e5f4 403d d65c 02bd 4b45 93bb a0a1 a23c
000000c0: ac5b f9ba 361f 8bbc e231 643d af01 ccbc
000000d0: 56ce 843d 6395 2a3c 7ff4 06bd f11e 93bb
000000e0: 8e8a 7b3b 3d3d 5a3c d8bd 6ebd a061 733d
000000f0: de85 11bc af74 39bc ef52 06bc 4d2d 16bd
00000100: 6a97 16bd d528 853c 580e 1dbd 352e d8b9
00000110: a4e0 1bbd ac88 f6bb 68e6 e6bd d9e9 183c
00000120: a888 1cbd f7f3 8e3c 596f 70bc 3add 88bd
00000130: ec49 0a3d 8b65 67bd 67a8 713d eb2e 4a3d
00000140: 755e 123a df99 243d 5b5e 8fbb 6eb6 8c3c
00000150: 1ab0 673c d673 46bc bedf 843d 168e c3bc
00000160: d51e f53b 75f8 53ba 4af6 423c 148d d8bb
00000170: 03bd 3cbc 070f 9dbc 2a0c 58bd 5c70 eebb
00000180: c3d1 6f3d 364a 0b3d 1234 513c e96a 693d
00000190: ae5a a63c 5b28 3bbb 05a8 c3bc 03e1 d43c
000001a0: 84f4 cd3b 7d5d 1f38 3382 3dba 4eda bbbd
000001b0: 4043 49bb a35f 713c 1115 b63c ef0b f6bc
000001c0: 2567 8b3d f185 2a3d d039 d9bc 2563 93bb
000001d0: 2525 a03c 4763 10bd 7213 06bd f9e1 0f3d
000001e0: 8b45 c8bc 667b 703c f24d 9b3c 4872 71bd
000001f0: 828d d23c 1d01 edbc 77c8 90bc cd5a 353c
00000200: 28c5 24bd 7e85 78bc 7b4b d33c 212e 35bd
00000210: b5b9 383d c381 5a3c 249e 163d d447 8cba
00000220: c979 133d cec5 ff3c d878 17bc 5f2a df3c
00000230: dd72 77bc 6ef8 69bb 09c8 6a3c b1c8 d8bc
00000240: 9abf 3ebd db73 1ebc 36b4 aebd 9e30 77bd
00000250: 8c4f db3c 3912 933d 550b d1bc 2df1 13bd
00000260: 7add 8f3e d9c8 56bc 9abf 3e3c f8e9 3a3d
00000270: ae4c 363d abe5 5d3b 01b0 3cbc 58a7 cebb
00000280: 1c0d 023d f44d 08bb 23f7 61bd f302 b1bc
00000290: 5745 0639 a0cd 973c 35d6 6bbd 6944 0c3d
000002a0: 22ca 6dbc a3d9 0e3d 7dfa 20bc 325d ee39
000002b0: 1006 df3c 2dbb 893d e2db cabc a8b7 8e3d
000002c0: 5337 2abd 589a 13bc e154 ca3d 695b a0ba
000002d0: 8704 f6bc c54d 5fbb 9d2f ebbc 7275 e5bb
000002e0: 193b 63bd f4cc a1bc 715d 683c 1be8 91bc
000002f0: 1d25 ad3c 7241 21bd 5894 973c 5e96 5bbd
00000300: fe9f c3bc a471 cbbc 9c12 aabc d42f ba3c
00000310: df5a 3b3c 3fb6 853d 0458 20bd 6593 4dbc
00000320: bf92 f3bb 6c60 e4ba 33a8 0a3c a537 ca3c
00000330: afc4 cf3c 3b76 933c c66a 2dbd e587 27bd
00000340: fe0f 803c 19d6 02bd 787d 66bb 3e79 c03c
00000350: df8f 0539 6594 64bd 0e8e 5ebc 8dce 0b3c
00000360: 21c9 61bc e405 cabb 633f 9f3c 1825 6d3c
00000370: a02b 7b3d a511 49bd b646 e9ba 6f1f d83c
00000380: 5406 ee3c 1e87 65bc 2c56 e7bc 6f3e 2fbd
00000390: 5122 a03c 9376 543b f3e1 fb3b 87fa 923c
000003a0: e0c0 173c 1fa4 043d 2ec9 363d e0e8 65bc
000003b0: e817 063c c78a 38bd f410 ebbb 4037 02bd
000003c0: dee7 973d a674 51be cbd8 773c 85ec 0bbc
000003d0: 2181 8b3c e2d2 c9bb 8118 22bd 29e8 f73b
000003e0: 097b 97bd f558 babc fdaa 77bd 67d7 8e3d
000003f0: df7b ebbc 28fc e6bd 898e 46bb 1561 813c
