.taste_cache/emb/b8c474763b1f3393ccf5b2e4e789119c.npy (npy, 2176 bytes, 1 tensors)

array f4 [512]
00000000: ee54 a6bc 64d2 20bd a182 62bd ffe8 763c
00000010: a60b 9ebc 48b3 eb3c 8257 923d 0315 acbc
00000020: 76a6 d93c 8125 123d 1790 df3c ee4a b1bb
00000030: 3304 8f3b 06a8 443d ce36 4e3c 4551 db3b
00000040: 59e3 453c c4a1 5dbc 2439 7fbb 5566 26bd
00000050: 0b29 5dbd e884 253d db0b 083d f82b 05bc
00000060: 96a5 b9bc 240f 643d 3f14 063d 86c4 82bd
00000070: 0eb7 bbbc e20e 143d 4e78 b63c f8b9 30bc
00000080: eb23 68bb 0c82 f23c b112 b73c 1220 443d
00000090: 6019 4b3d 81d4 c8bb ffa8 743c 2e45 dfbd
000000a0: 75a5 a13a 75f4 4cbc fa1a 67bc 2499 22bd
000000b0: 8ce5 363d 8190 18bd 74e8 933c 4319 723c
000000c0: af4c 66bc 78d1 aabb 357c 383d 286b 83bc
000000d0: c1f4 423d 2a03 d63c 900a 273c 5c94 933b
000000e0: d488 f73c d44b 8d3c ba6a 61bd 72e9 8d3d
000000f0: 7e63 55bd b115 7ebc 7faf 7e3c e12b 6ebc
00000100: 761e 87bc d3c0 ae3c 41ed 18bd 6548 e93b
00000110: 2685 1fbd efcc 6cba b1e6 c0bd 30b3 1dbb
00000120: 17de 0ebd b959 013c f343 6abc a896 96bd
00000130: ed5b 833b 38fc e8bc 1437 e43c 9814 f23c
00000140: d773 96bc 082e e13c b096 a73b ad66 803c
00000150: 9d15 e83a a1ef cd3b fa43 193d 92ea 43bc
00000160: 7512 21bc f80d 9e3c 2dee 03bc 3941 02bd
00000170: fe01 27bd 9087 c4bc 6093 55bd 105f 9fb9
00000180: ff3a 543d bff7 43bc 719e 9dba 366f 8d3d
00000190: f2d6 17bc 37ae 32bc ef38 90bc 5e95 913b
000001a0: b897 a0bc 7d11 2d3c 4e0c 053c b0bc 59bc
000001b0: c93a c7ba 4022 d7bc feeb b0bc fd57 42bd
000001c0: fe78 4f3d d381 503d ead1 d7bc ca20 233c
000001d0: 4343 c8bc 6eb8 08bd 850d 0fbd b54b 953c
000001e0: ec91 c7bc 5d4a fd3c e593 fa3c 66ac 5bbd
000001f0: 54f7 0d3d a341 5ebd 9360 f3bc 4ea6 c0bc
00000200: 8ddc 0dbd fa2f f5bc f8a0 273d ee75 47bd
00000210: 7775 653c 16dd 613c 2707 bb3c d314 5dbc
00000220: d05f ea3c 87b3 243d 6c3a 9cbc 057a 9e3a
00000230: ee6b f6ba 6fde 5cbc 5a3e 733c 69fb d1bc
00000240: 14ee e9bc 0f3b dc3b 6eac 89bd e51b 4ebd
00000250: 5acf 943b 12f3 5c3d bf62 eaba f484 2cbd
00000260: 17c3 9b3e 9fd0 7d3c 7e9b a93c acfd 453d
00000270: 6edd 763d de7d a83c eab7 2ebc d6f9 efbb
00000280: 19d0 9e3c 5b4d 9c3b a0df cfbc c535 ab3c
00000290: 2318 6f3c cd87 6b3d da5a aabd 95f9 483d
000002a0: 8c66 e9bb 2447 da3c cb6e 203c ba93 453c
000002b0: 93ad d53c 94cf 903d ca86 8d3b 610c c93c
000002c0: 8b7a 7bbd 246d 9f3c 4612 213e 9e15 1f3c
000002d0: 33a1 13bc 669d 87bc a6d5 bbbc 816b ef3c
000002e0: 68d9 7dbd 339e 253b ca54 2c3d 679b 1ebd
000002f0: fdaa cc3c 1ac3 1cbd 5c8b 233d 2a8d 74bd
00000300: b467 1dbd 0ddb b9bb 8a03 e43b fd69 6e3c
00000310: b13b 493c 2e2e 683d eb45 5dbc e7f3 cbbc
00000320: c840 0e3c 8a09 5f3a 5c59 1b3d 1c72 9c3b
00000330: b097 193c 50a7 1a3c 790e 31bd ef90 bdbc
00000340: 3908 513d e76f 1fbc 93d2 1f3c aaae e13c
00000350: f439 47bc 4f03 57bd 0df7 25bc 7d99 c53b
00000360: 959e bebc 6c63 9ebc bdb8 173d cec0 ad3c
00000370: 8d88 863d 5813 0fbd 45c2 16bc 869f 8e3c
00000380: e9b0 4e3c 8d16 d3bc 2c82 4bbc 43ce 6cbd
00000390: ca27 e53b 5c84 2e3c 176d 80bc 6509 b53b
000003a0: ac5f 4a3c dfcd ce3c 204a 463d f638 25bd
000003b0: 45c2 6f38 9077 53bd 131b 94bc ee88 3cbd
000003c0: db29 ab3d 3e82 12be fa3f 0b3b 55a7 0c3c
000003d0: a5ef d2b9 0495 e5b9 76ae 3bbd 34fd f53c
000003e0: 8cca a8bd ab79 59bb db5f ccbd 918a 333d
000003f0: 34a7 27bd 9304 c1bd 3d39 0d3c 267a c8bb
-0.02030417 -0.039263144 -0.05530036 0.015070199 -0.019292664 0.028772011 0.07145597 -0.021006113
0.026568633 0.035680298 0.027290387 -0.0054105436 0.0043645143 0.048011802 0.012586309 0.0066930377
0.01207813 -0.013527337 -0.003894397 -0.040624935 -0.05399422 0.040409952 0.03321443 -0.008128159
-0.022661965 0.0556785 0.032734152 -0.0638514 -0.022914436 0.036147006 0.022274163 -0.010786526
-0.00354218 0.029603027 0.02234778 0.047882147 0.049584746 -0.006128848 0.01493287 -0.10901867
0.0012332635 -0.012509455 -0.014105553 -0.039696828 0.044652507 -0.037247185 0.018055178 0.014776531
-0.014056369 -0.005212959 0.045040328 -0.016042307 0.047596697 0.026124556 0.010195389 0.00450377
0.030216612 0.017248072 -0.055033423 0.06929292 -0.052096836 -0.015508101 0.015544771 -0.014536829
-0.016494017 0.02133218 -0.037335638 0.007119226 -0.03894534 -0.0009033223 -0.09419001 -0.0024063103
-0.03487977 0.007894927 -0.014298427 -0.07352954 0.004008761 -0.02844058 0.027858295 0.029550835
-0.018365784 0.02748777 0.005114399 0.01567396 0.0017706637 0.0062846695 0.037418343 -0.011957781
-0.009831061 0.01929377 -0.008052391 -0.031800482 -0.040773384 -0.023990422 -0.0521425 -0.0003039767
0.051814076 -0.011960923 -0.0012025369 0.069059774 -0.009267556 -0.010905794 -0.017605273 0.004442855
-0.019603595 0.010563252 0.008120609 -0.0132896155 -0.0015200014 -0.026261449 -0.021596905 -0.047447193
0.050652497 0.05090506 -0.026345212 0.009956548 -0.024446135 -0.03337901 -0.034925003 0.018224576
-0.024361573 0.030919248 0.0305881 -0.05363121 0.0346597 -0.054261815 -0.029709136 -0.0235168
-0.03463416 -0.029930104 0.040924996 -0.04869645 0.014005057 0.013785621 0.022830559 -0.013493734
0.02861014 0.040210273 -0.019070826 0.0012090808 -0.0018800476 -0.013480767 0.014846409 -0.025632577
-0.028555907 0.0067209075 -0.067223415 -0.05031957 0.00454132 0.053942747 -0.0017882212 -0.04211898
0.3042228 0.015491634 0.020704027 0.048337623 0.060269766 0.02056783 -0.010663966 -0.007323484
0.019386338 0.0047699637 -0.025375187 0.020899663 0.014593157 0.057502557 -0.0831811 0.049066145
-0.0071228202 0.02664525 0.00979204 0.012059147 0.026083743 0.070708424 0.0043190466 0.024542036
-0.061396163 0.019461222 0.15729627 0.009709744 -0.009010601 -0.016554546 -0.022929024 0.029226067
-0.061974913 0.0025271296 0.04207305 -0.038722422 0.024983877 -0.038272 0.039927825 -0.059704937
-0.038428977 -0.005671865 0.0069584297 0.014551637 0.012282298 0.056684665 -0.013505439 -0.024896575
0.008682437 0.00085081963 0.037927017 0.004774345 0.009374544 0.0094393045 -0.043226693 -0.023140399
0.051033232 -0.009731269 0.009754795 0.027549107 -0.012159813 -0.05249339 -0.010129702 0.00603026
-0.023268977 -0.019334517 0.037041415 0.0212101 0.06569014 -0.034930557 -0.009201591 0.017410051
0.012615421 -0.025767589 -0.012421172 -0.057813894 0.0069932686 0.010651674 -0.015677018 0.0055248016
0.0123519115 0.025244651 0.048410535 -0.040337525 5.7162968e-05 -0.051627696 -0.018079316 -0.046029024
0.08357593 -0.14307496 0.002124785 0.008584817 -0.0004023287 -0.0004378931 -0.045820676 0.030027963
-0.08241758 -0.0033184092 -0.099792205 0.04383332 -0.04093094 -0.094247006 0.008619604 -0.006118077
