.taste_cache/emb/b948585781243477c5285752de98b65e.npy (npy, 2176 bytes, 1 tensors)

array f4 [512]
0	0x3a5f7bc8	0.000852522
1	0xbe20b35d	-0.15693422
2	0xbd3c9e75	-0.046049554
3	0xbbcbe858	-0.006222766
4	0xbcf14cd6	-0.029455584
5	0x3c265cce	0.010153962
6	0x3d85aa87	0.06526666
7	0xbd176e85	-0.036970634
8	0x3be4e61d	0.0069854395
9	0xbccd0c01	-0.025030138
10	0x3ac3fd12	0.001495274
11	0xbc203c8d	-0.009780061
12	0x3c9d5173	0.019203877
13	0x3d57cea0	0.052687287
14	0xbcad0e09	-0.021124857
15	0x3cd539ff	0.026028631
16	0x3d4d33de	0.050098293
17	0xbcb7af25	-0.022422383
18	0x3c672b74	0.014109481
19	0xbd34d679	-0.04414985
20	0xbd1081d2	-0.035280056
21	0x3ca1567d	0.019694561
22	0x3d34e675	0.044165093
23	0xbcf3584e	-0.029705193
24	0xbc407406	-0.011746412
25	0x3c4cc66a	0.0124984775
26	0x3d11b8fa	0.035576798
27	0xbd942acb	-0.072347246
28	0x3bd8b4f6	0.006613369
29	0x3d44d020	0.048050046
30	0x3d7bcc50	0.061474144
31	0x3d858b1b	0.06520673
32	0x3c663705	0.014051204
33	0x3d835bc8	0.0641399
34	0x3c9bc772	0.019016001
35	0x3d3cc4a0	0.046085954
36	0x3c818192	0.015808854
37	0xbca13d9b	-0.019682696
38	0x3cb3d637	0.021952732
39	0xbdb920f9	-0.09039492
40	0x3c98183d	0.018566245
41	0x3bafb44f	0.0053620706
42	0xbcee082b	-0.02905663
43	0xbd4a32a1	-0.04936469
44	0x3ccaa3c2	0.024736289
45	0xbd3d5f7f	-0.04623365
46	0xbbcb9d1d	-0.0062137977
47	0x3c2c1488	0.010502942
48	0xbc83e97c	-0.016102545
49	0xbc686776	-0.014184823
50	0x3d2b06bd	0.041754473
51	0xbd505c03	-0.050869
52	0x3cb9513a	0.02262174
53	0x3d5f626f	0.054537233
54	0xbcca0bde	-0.024663862
55	0x3cbbb0ff	0.022911547
56	0x3cb8f895	0.02257947
57	0xbbfd4e61	-0.0077302908
58	0xbcbb5d6e	-0.0228717
59	0x3d384c8f	0.044994887
60	0x3c740e4a	0.014895985
61	0xbca4cef5	-0.020118216
62	0x3ccc4d19	0.024939107
63	0xbc5bb598	-0.013409995
64	0xbd70de96	-0.058806024
65	0xbc865b12	-0.016400848
66	0xbbbde4fc	-0.0057951193
67	0xbba0a30f	-0.0049022506
68	0xbbd49d59	-0.006488484
69	0xbc6d4519	-0.014481806
70	0xbdc4bfa9	-0.09606869
71	0x3b1d2ebd	0.0023984157
72	0xbd2fa158	-0.04287848
73	0x3cd6d95d	0.026226694
74	0x3c202048	0.009773321
75	0xbdd87297	-0.10568731
76	0x3b361bfc	0.0027787676
77	0xbc940df9	-0.018073069
78	0x3ca5519b	0.020180514
79	0x3bed7bbb	0.007247416
80	0xbc5e5fdf	-0.013572662
81	0x3d478c6f	0.048717912
82	0xbd1b8b7a	-0.037974812
83	0x3d1f7495	0.03892954
84	0x3b9bc476	0.0047536446
85	0xbd24c79a	-0.040229417
86	0x3d337137	0.043809142
87	0xbd052545	-0.032506246
88	0x3c97eb07	0.018544687
89	0x3c298986	0.01034773
90	0x3cd408fe	0.025883194
91	0x3c455872	0.012045013
92	0xbdaeeae4	-0.085408956
93	0xbcf2143c	-0.029550664
94	0xbd91f2f7	-0.0712642
95	0x3cfde547	0.030993117
96	0x3cd36e78	0.025809512
97	0x3cedf77b	0.029048672
98	0xbc85d0e5	-0.01633496
99	0x3d86af31	0.06576384
100	0x3cde084a	0.027103562
101	0x3c195015	0.009357472
102	0xbbbeab5b	-0.005818767
103	0x3c6f4cbd	0.014605698
104	0x39622381	0.00021566266
105	0x3cd42aef	0.025899379
106	0xbcece187	-0.028916134
107	0xbdb3e2c4	-0.087834865
108	0x3c53e40b	0.012932788
109	0x3c8982a1	0.016785922
110	0xbc533304	-0.012890581
111	0xbcea4e7f	-0.028601883
112	0x3d45f266	0.048326872
113	0x3b35ce24	0.0027741278
114	0xbd2c4817	-0.042060938
115	0x3b231db1	0.0024889524
116	0xbd0cfa21	-0.03441823
117	0xbc0ec351	-0.008713559
118	0xbcc80248	-0.02441515
119	0xbd06afde	-0.032882564
120	0xbd991097	-0.074738674
121	0x3d64f8dc	0.055901393
122	0x3d1cc70d	0.038275767
123	0xbd09c2ee	-0.033633165
124	0xba810c8a	-0.0009845656
125	0x3cbb71e1	0.02288145
126	0xbc3c007d	-0.011474726
127	0x3b8822fb	0.0041545606
128	0xbcc05600	-0.023478508
129	0xbc131cb9	-0.008979016
130	0x3c3faf3c	0.011699494
131	0xbc282b3e	-0.010264216
132	0x3c51c021	0.012802155
133	0xb9c36153	-0.0003726581
134	0x3b3e3b9e	0.0029027234
135	0x3d45b577	0.04826876
136	0x3d303599	0.043019865
137	0x3cb8cc08	0.022558227
138	0x3cbd81aa	0.023133118
139	0x3c9576ae	0.018245067
140	0xb9e34fcb	-0.00043356264
141	0xbca9a209	-0.020707147
142	0xbb7783f1	-0.0037767852
143	0xbd850d3a	-0.064966634
144	0xbd72dab2	-0.059290595
145	0xb9ce9819	-0.00039404703
146	0xbdb43f9f	-0.08801197
147	0xbcf3b5a1	-0.029749693
148	0x3b853f61	0.0040663932
149	0x3d97b820	0.07408166
150	0xbca8249a	-0.020525265
151	0xbd2e8c19	-0.042614076
152	0x3e8b13a1	0.27163413
153	0x3cb5c14d	0.0221869
154	0x3d07e1ac	0.0331742
155	0x3d4b5fc5	0.04965188
156	0x3ce9312c	0.02846583
157	0x3cdf6621	0.027270379
158	0xbd59ad06	-0.053143524
159	0x3cbb869e	0.022891339
160	0xbc536f66	-0.012904977
161	0x3bfe8ad0	0.0077680126
162	0x3b6a88f8	0.0035787206
163	0xbb41a99b	-0.0029550556
164	0x3c92d450	0.017923504
165	0x3c6e4ca9	0.014544644
166	0xbcf45de7	-0.029829932
167	0x3cfeeba0	0.031118214
168	0xbbaf001c	-0.005340589
169	0x3d276a22	0.0408727
170	0xbcb90380	-0.022584677
171	0xbd1cc3ac	-0.038272545
172	0x3cd68204	0.026185043
173	0x3d6bbfe8	0.057556063
174	0xbcbd903c	-0.023140065
175	0x3dbe03b1	0.09278048
176	0xbd04da07	-0.03243449
177	0xbc11c732	-0.0088975895
178	0x3d8e7409	0.06955726
179	0xb8ce733d	-9.84431e-05
180	0xbc90e8c3	-0.017689114
181	0x3b9e1288	0.0048239864
182	0xbc9edc9a	-0.0193923
183	0x3d3c6323	0.04599298
184	0xbd5b17ce	-0.0534895
185	0xbaff71df	-0.0019488892
186	0x3c31dbe6	0.0108556505
187	0xbc008c44	-0.007845942
188	0x3d1b694b	0.037942212
189	0xbc3dd7b2	-0.01158707
190	0x3cb0d1ed	0.021584475
191	0xbd5e84bf	-0.054325815
192	0xbc708264	-0.014679525
193	0xbd1e189a	-0.03859768
194	0xbaf27080	-0.0018496662
195	0x3c8dbf7d	0.017303223
196	0x3cb04553	0.021517431
197	0x3d8c0a0b	0.06837853
198	0xbc01a901	-0.007913829
199	0x3c18e854	0.009332735
200	0x3c481ee1	0.012214393
201	0x3bd6206b	0.0065346262
202	0xbc3a86e4	-0.0113846995
203	0xbbff606c	-0.007793477
204	0x3c675e5c	0.014121618
205	0x3cb09fdd	0.021560604
206	0xbda044d5	-0.07825629
207	0x3c144b43	0.009051147
208	0x3d609520	0.054829717
209	0xbd40baa0	-0.04705298
210	0xbcdef6a0	-0.02721721
211	0x3ce7ac55	0.028280417
212	0x3cb5d692	0.022197042
213	0xbd5fed74	-0.054669812
214	0xbb349f52	-0.0027560783
215	0x3c9112ff	0.017709253
216	0xbd3d3ccb	-0.046200555
217	0x3af99e62	0.0019044394
218	0x3d01b3cf	0.03166562
219	0x3cc4afbc	0.024009578
220	0x3d6157fd	0.055015553
221	0xbd7fc09b	-0.062439542
222	0x3c82946c	0.015939914
223	0x3b2d7089	0.0026464781
224	0x3c6595d7	0.014012775
225	0x3bc6cd52	0.0060669566
226	0xbc962998	-0.01833038
227	0xbd3b780d	-0.045768786
228	0x3cc809ea	0.02441879
229	0x3ce9fb51	0.02856222
230	0xbc03fe87	-0.0080562895
231	0x3bc14d68	0.00589912
232	0xbb75ee37	-0.003752602
233	0x3cc28848	0.023746625
234	0x3d15789a	0.036491968
235	0xbc914012	-0.017730746
236	0xbc1016fe	-0.008794544
237	0xbd4bde71	-0.049772684
238	0x3c2d6cee	0.010585053
239	0x3a98c32b	0.0011654844
240	0x3d05fbc1	0.032710794
241	0xbe42dcd2	-0.19029549
242	0x3d6f0030	0.05834979
243	0xbca4a07e	-0.02009606
244	0x3c84a3d2	0.016191397
245	0xbcf247b8	-0.029575214
246	0xbcecc59b	-0.02890282
247	0x3daf7c09	0.0856858
248	0xbd711822	-0.058860905
249	0x3c320bfb	0.010867114
250	0xbdae3e28	-0.08507949
251	0x3c9ab9da	0.018887449
252	0xbce60b1c	-0.02808147
253	0xbdc4dc45	-0.096123256
254	0xbd4eab3a	-0.050456263
255	0xbd6ff2d6	-0.058581196
