.taste_cache/emb/b9c97cb20efd654c62719e4933e6b6bf.npy (npy, 2176 bytes, 1 tensors)

array f4 [512]
00000000: 5ca9 8abc ad50 10bc deb5 51bd c2a2 f2bc
00000010: 3048 fbbc e0d3 fd3c f99d a93d 53fa 58bc
00000020: 9017 263b c7dd 2c3d 6851 d03c d108 3ebc
00000030: c476 6f3c 073c 4a3d 2f23 af3c 573c e3bb
00000040: bbd3 2f3d e545 3cbc 19bc 4e3b e25f bfbc
00000050: bb2b 55bd fb4e ef3c 3ba5 013d f4ef 01bc
00000060: 0510 9abc af39 103d a05d 4a3d ef91 88bd
00000070: fc48 953c 720e f73c 3460 3b3d 1b1b 8a3c
00000080: ba90 213c 8e0f ec3b ace6 1e3c 02c0 c73c
00000090: 2c31 153d 51c1 8fbb c4c6 a73c fcfe c1bd
000000a0: 7d26 653b 012e aabc 6164 eebc 229c 01bc
000000b0: 1eee 223d af20 cdbc ad91 7f3c 8fcf 9f3c
000000c0: 85ed a1bb bd7d efba ddaf 783c b15f 35bc
000000d0: f770 503d f904 a13b 6372 9abc 0bc9 bebb
000000e0: a957 9b3c f3cb 933b 0fbe c3bc 456a 643d
000000f0: c3d3 e1bc 3907 bcbc eeca 823c 037f d8bb
00000100: 2aef f0bb 5432 8b3b 3e07 c6bc e40b 38bd
00000110: ce32 61bc 54b4 72bb 4123 e1bd 7ba9 1fbb
00000120: 44bf bebc f9e5 1b3d da0b e9bc 0c4c 86bd
00000130: b418 073d a9c8 e3bc ed36 113d 2a5e b63c
00000140: 71d5 f1bc abd9 633c f538 a5bc c26e 0d3d
00000150: 6073 e2bc 0e73 f0bb 66d5 b03c fd7e 2fbd
00000160: 9cac 22bc 61fd 403d 25f4 febc e6bc 2ebd
00000170: 7b4f 4cbb 38f2 94bb 1033 0fbd 4255 b93c
00000180: 122b 7c3d 9f9b f23c dd1e 633c 6e8c 5f3d
00000190: 8825 f8ba 2141 71bb 2475 11bc d25a 11bb
000001a0: 0c47 36bd 1b1a ebba 936f d0bb f9ae 50bd
000001b0: a223 e8bc 5cf4 fe3b 4b27 2cbc 80ea 08bd
000001c0: 5f83 2d3d c029 b63c 1c01 a3bc 03c0 133c
000001d0: e8c2 72bb 4a33 8fbb 9cc1 88bc 5ac5 b03b
000001e0: 39f1 34bd 80be 2b3d 1221 773c b597 d5bc
000001f0: 5d95 0d3d 72db 36bc 9840 03bd ae71 7dbb
00000200: 752f c4bc 0071 e0bc b6b3 7e3d 08a0 1cbd
00000210: 2df0 903c 0879 c9ba 1da9 273d 9452 393b
00000220: c1ae 083d ab5e 303d 03b0 a3bc 8cb1 e73b
00000230: 1a0f f23b 79dd a4bc aab9 603c 8b5c d4bc
00000240: 111f bdbc 1e08 d838 4494 91bd 43ea a0bd
00000250: e2d7 4a3c 3e3f 483d 365c c0bc 0625 25bc
00000260: f09a 913e 02cf 833c 24e0 c73c c888 513d
00000270: 204d 443d 1be9 f63c e316 d4bc c8b5 ed37
00000280: 28b5 f63c 9484 233b f962 00bd 0917 c63c
00000290: c0b0 5a3c 8f82 1c3d ba01 9fbd 417d f13c
000002a0: b88d 443b 3b13 243c 6906 603c 2cd5 793c
000002b0: 8d23 2dbc 8fa8 a83d 64e9 1cbc 9ea9 5c3d
000002c0: b840 75bd 4f40 563c b056 f23d c42e 053c
000002d0: c357 3cbd ffab 393c f90d 66bc 1544 263c
000002e0: 063c 5fbd 5c32 883c 01c3 c3bc a8ba 19bd
000002f0: 0a36 503c f6b3 d0bc 7ac1 c93c 848b 3dbd
00000300: 7b20 c8bc f7a8 1dbd 5d23 b7ba 6969 803c
00000310: b57c 1fbb 6c4e 3a3d 78cf 35bc 4d03 61bc
00000320: e80c 89bc c6de eeb9 e59c 64bc 1da7 093b
00000330: dab5 203d 54e8 9b3b 423f 45bd 9c7a 7bbc
00000340: ba5b 383d 870a 46bd 6267 a23c 22ed 7d3c
00000350: 49a7 1c3c 6038 61bd 76e4 9dba 1cb5 103d
00000360: 81e6 05bd e7d2 41bc 2870 913c cce8 f23c
00000370: c26c 493d f0d8 fabc b073 0e3c be03 213c
00000380: e59f 273d 451f 99bb ebe6 30bc 0442 05bd
00000390: a7ae 6d3c 1d6d af3c 26db 73bc 8cdc 453c
000003a0: c716 c6bb b183 063b 348e 313d 523a b1bc
000003b0: 3fc6 943c d0a0 4ebd 26a6 b1bc 8608 18bd
000003c0: f46c 523d 318d 49be 667c 44bc 3321 d13b
000003d0: e768 113c cf34 663c 94b6 4dbd 7d08 413d
000003e0: 78eb bebd 04fc b4bc a1fe 39bd 5906 003d
000003f0: 4a73 6cbc d43c e1bd 360e e7bc 8fb7 393c
-0.01692646 -0.008808297 -0.051198833 -0.029618625 -0.03067407 0.030984819 0.08282084 -0.013243276
0.0025343634 0.04220369 0.025429443 -0.011598782 0.014615718 0.049373653 0.021379082 -0.0069346833
0.04292653 -0.0114912735 0.003154522 -0.02336115 -0.052043658 0.029212466 0.031651717 -0.007930744
-0.018806467 0.03521126 0.049405694 -0.066684596 0.018223278 0.030158255 0.045746043 0.016858628
0.009861166 0.0072040027 0.009698551 0.024383549 0.036423847 -0.004387059 0.020480521 -0.094724625
0.0034965568 -0.02077389 -0.029100599 -0.00791076 0.039777867 -0.025039999 0.015598697 0.019508151
-0.0049416446 -0.0018271726 0.015178648 -0.011070178 0.05088898 0.004913923 -0.018853372 -0.005822306
0.018962698 0.0045103966 -0.023894338 0.05576541 -0.027566796 -0.022952663 0.015965905 -0.006606938
-0.0073527293 0.004247943 -0.024173375 -0.044933215 -0.013745023 -0.0037033753 -0.10993052 -0.0024362493
-0.023284562 0.038061116 -0.028448034 -0.065574735 0.032982543 -0.027805643 0.035452772 0.022261698
-0.029520722 0.013906877 -0.02016876 0.034529455 -0.027642906 -0.0073379343 0.021586131 -0.042845715
-0.009928849 0.04711664 -0.031122277 -0.042660616 -0.0031175304 -0.0045454763 -0.034960806 0.022623662
0.061564513 0.029615222 0.013862339 0.054577284 -0.0018932084 -0.0036812501 -0.008878026 -0.0022179377
-0.04450135 -0.0017936857 -0.006360957 -0.050948117 -0.028337304 0.0077805948 -0.010507415 -0.03342676
0.042361613 0.022236705 -0.01989799 0.009017947 -0.0037042443 -0.004370128 -0.016693883 0.00539462
-0.04417536 0.04192972 0.015083568 -0.026073316 0.034566272 -0.011160718 -0.032044023 -0.0038672495
-0.02394841 -0.027397633 0.062183104 -0.038238555 0.01769265 -0.0015371153 0.040932763 0.002827798
0.033369783 0.043059032 -0.01998139 0.007070726 0.007387054 -0.020125138 0.013716141 -0.025923034
-0.023086103 0.000103011946 -0.071083575 -0.07857182 0.012380572 0.048888437 -0.02348147 -0.010079628
0.2843852 0.01608992 0.02439887 0.051155835 0.047925115 0.03014045 -0.02588982 2.833725e-05
0.030115679 0.002495085 -0.031344388 0.024180906 0.013347805 0.038210448 -0.07764001 0.029478671
0.0029991698 0.0100143505 0.013673403 0.015248578 -0.010567558 0.08235275 -0.009577129 0.053872697
-0.059876174 0.013076856 0.118329406 0.008128826 -0.045982134 0.011332511 -0.014041417 0.010148068
-0.054500602 0.016625576 -0.023896696 -0.037531525 0.012708196 -0.025476437 0.02462839 -0.04627563
-0.02442955 -0.038491216 -0.0013972331 0.015675263 -0.0024335806 0.045484945 -0.011096828 -0.013733697
-0.016729787 -0.00045560877 -0.013953422 0.0021004148 0.039235927 0.0047579203 -0.04815603 -0.015349057
0.045009352 -0.048349883 0.019824687 0.015498431 0.009561368 -0.054985404 -0.0012046236 0.03532897
-0.03269053 -0.011830068 0.017753676 0.029652022 0.049175985 -0.030621022 0.008694574 0.009827552
0.04092397 -0.004672917 -0.010797243 -0.03253366 0.014506972 0.021414334 -0.014883792 0.012076508
-0.0060451957 0.0020525272 0.043348506 -0.021634255 0.018160937 -0.05044633 -0.021685671 -0.037117504
0.051373437 -0.19682766 -0.0119925495 0.0063821315 0.008875108 0.0140506765 -0.05022295 0.047127236
-0.09322256 -0.022092827 -0.04540885 0.031256054 -0.014431784 -0.1099793 -0.028205018 0.011335268
